2022-07/ofml-drl-team2/test_cases/rotatingCylinder2D/policy.pt (torch, 95033 bytes, 6 tensors)

weight f8 [64, 100]
-0.04144504640245761 -0.045843875262582975 -0.09810505296444709 -0.017293491771078792 -0.09248436718309358 0.046871199401357706 0.001848303272587759 -0.0884996032012974
-0.011755813293205918 0.0378962992828177 0.017376062469033515 0.02608333229685755 0.08187670041636179 -0.06397818658726806 0.061710261218225045 -0.06866994470436627
-0.08307160008066296 -0.04178290495913286 0.05744745201148766 -0.007181457798142809 -0.03125432793567557 0.09344175884023044 -0.027806686430843785 -0.0006395194245042867
0.06285086370262377 0.07264995881445359 0.06512228957652792 -0.06536994427560387 -0.0933247029063263 0.0408637336694752 0.005658136672665458 0.009782114518906404
0.08978946049169138 0.02184678921964682 -0.00452639580977745 0.0708728907166106 -0.0026769075144286165 -0.081759183282246 0.07963549481681095 0.022661481083785403
-0.014276358461284831 0.02658257238228243 -0.07254965921372619 -0.033080399363374834 0.014082812905997043 -0.08419934732042401 0.09067128563878994 -0.052743898207161626
0.0861825634930525 -0.036843779111697006 -0.02036634851134138 0.05142975223326189 0.09860539344569061 -0.08645521501816593 -0.011687002448937344 -0.049700800951263634
0.058636774138710726 0.08143374698390865 -0.03429949420425377 -0.010656931992975014 -0.02675867871387647 -0.04633624465779944 -0.06544541381315969 -0.08247197321735442
-0.09690481845981937 -0.04056796012342873 -0.059590917769595436 -0.05143435669264284 -0.03204388845445522 -0.0791865959489695 0.06050962061601432 -0.08028566130795527
-0.04948792981348373 0.02887628855009092 -0.03156325971884028 0.09905793034765151 0.03960653236878437 -0.05821075560548738 -0.014339676381328137 0.029159497224108863
0.031839296321197905 -0.043906696800424576 -0.08975696774768058 -0.029095046902076514 0.019843725501227594 -0.019597317988839166 0.008596898402531482 0.011354289196143251
0.020146501887519718 0.013018453264684137 -0.04263039278796305 0.08772540129281797 0.06825451817409438 0.05392900181935882 0.028716683248045792 -0.053391505463172305
0.04571663397571943 -0.0939145930484295 -0.0958072506658985 0.09862512024853708 0.032081857102881514 0.04647931923480757 -0.026043966145389837 -0.0929438031316102
-0.09877857708890526 0.00366716246222265 0.026454861909444568 0.036413781438833934 0.07408860483564306 -0.0043342438504634815 0.0718861184274982 -0.026165086676335634
-0.08728917722042925 0.06408226857486773 -0.03655149628276626 0.031127914725138848 0.04044620867898656 -0.06961982718787241 0.09842833309971971 0.04378213820238321
-0.026637487526630085 0.07632703036950478 0.04886571069679046 0.06704353026625144 -0.02786303559368306 -0.015152245924419348 -0.055750674313228304 0.03908414542880567
-0.0271893605846913 -0.08638352396294437 0.06060323637010549 -0.06855689432527365 -0.07988478859735752 0.04817658209219202 0.06037217146825277 0.011314359010534857
-0.07207693710189868 -0.014842619334261252 0.011957784488584066 -0.027559265059115476 0.06212469524468042 -0.09688647558857937 0.08211221806615554 0.06843838706546392
0.07896211059635765 -0.0553818092896352 -0.02298624385599981 0.03644789030063469 0.07699054743653352 0.013057112377652901 0.03089497352678827 -0.00942650871311208
-0.08227708994140205 0.0428349376683687 0.04039792750518951 0.037962121818559576 0.06358488576144332 -0.07288571107990635 -0.06907923908668973 -0.06517010611223022
0.03289973786244784 -0.060949826004909655 -0.08529316440874311 0.05123291713870528 0.015114054277185972 0.03901183085520723 -0.05765132306262197 0.008090644032797533
0.06322321472311915 -0.09972875040406086 0.04544992845881352 0.022289906791448974 0.008230808150216262 -0.030909254643295855 0.06735911920537042 0.09887555568037441
0.015568673082109451 -0.04450470389252663 -0.06607728154428762 0.02335643049430731 -0.06062409374585888 -0.06433664257357156 0.056186684589156516 0.012502980888012426
-0.022920723809253227 0.006078692850497313 0.0013609364308692306 0.0537850443067781 -0.09624340689954063 0.001821399905052634 -0.06753552903135275 0.0057238564268768935
-0.06805830622061464 0.04771923053574416 -0.07945423398664486 0.0154869572107156 -0.046463064252023484 0.04754971347009417 0.05356923569635694 0.08444100212589872
0.038625466556760246 -0.042514703944041325 -0.07781850489649134 0.03084706276409299 0.09824839201687775 0.02545971194177028 0.028250576416948014 0.06850707902872405
0.03130527547608512 -0.09118777631096166 0.007763123510789781 -0.07658352724566046 -0.019415535997058808 -0.09196063196702099 -0.02221659127660771 -0.07089241998817632
0.07175912844761345 0.08432767856203542 0.01665802780023011 0.031017747086798518 -0.04919426965050319 0.004475483989826067 0.06745029516223197 -0.0043193896507663695
-0.05184898639243293 0.03144647552127422 -0.09469606960231093 0.0008029619455676595 -0.017476697289713503 -0.02160346041395431 -0.07777424315747185 0.009282225482866545
-0.01638707407604771 0.05996889806359426 0.09929440717406829 -0.047644880690138544 -0.043154364409526046 0.08347941265338829 0.00988137651845209 -0.0559275169680941
0.05448366930004577 -0.061313746331677715 -0.08857668810877634 0.09410282802002302 -0.033321125582645744 0.058915157758030016 -0.017696114311650323 -0.07528611136752822
0.011157797678458635 -0.026458708066636458 -0.038925032653831 0.049016318786657506 -0.03445205382950689 0.0678882873856202 0.0025743096665038043 0.029843867829212754
00000000: a06f c2fd 4838 a5bf 860b f331 d978 a7bf
00000010: 6bfd 0daa 691d b9bf 4c99 5c96 62b5 91bf
00000020: 0651 7134 0ead b7bf 5933 1b79 80ff a73f
00000030: 9977 f786 5848 5e3f 7c63 75f5 e8a7 b6bf
00000040: a6bf 0e8d 6e13 88bf 5346 1ecc 2467 a33f
00000050: 73a8 26d0 07cb 913f 1f29 becc 96b5 9a3f
00000060: cbb8 9716 dff5 b43f 48b9 0cdb df60 b0bf
00000070: c910 85c3 7c98 af3f 882f b97e 5a94 b1bf
00000080: 89a5 922d 2e44 b5bf f3a6 a9a4 9164 a5bf
00000090: 0978 419f c069 ad3f e60c 17e6 4d6a 7dbf
000000a0: f932 af38 9100 a0bf 99ac 4c92 cceb b73f
000000b0: 1389 5223 5b79 9cbf 992d b781 adf4 44bf
000000c0: a4cc 2084 fe16 b03f 71f0 290d 3099 b23f
000000d0: cbc9 f8b7 daab b03f 7b18 ceac 15bc b0bf
000000e0: 163f e4b2 20e4 b7bf f6db 675f 17ec a43f
000000f0: 7f43 727f fc2c 773f 3331 8e2f a508 843f
00000100: 3359 562c 71fc b63f cc4a e234 015f 963f
00000110: 1945 8c1f 458a 72bf d602 cdcb b924 b23f
00000120: ff0b 53c7 e1ed 65bf 734c 587a 2bee b4bf
00000130: 6ec7 d6e5 fd62 b43f dffd 8840 9234 973f
00000140: ffd8 9365 ec3c 8dbf 1911 1a3c 7638 9b3f
00000150: 9cad a84d 9d92 b2bf 4302 cf02 eaef a0bf
00000160: 5980 ef26 73d7 8c3f c9f4 15a3 168e b5bf
00000170: a33f 81be 3b36 b73f 0f04 ba8b 3f01 abbf
00000180: 9627 b07b 0f10 b63f f00a b114 30dd a2bf
00000190: ac3b 2e83 eada 94bf 6638 c41f 0055 aa3f
000001a0: d6f6 0efc 333e b93f 0359 12d1 ed21 b6bf
000001b0: 26a0 73ea 5aef 87bf c363 5725 6272 a9bf
000001c0: 3293 89a6 a305 ae3f 242d 1690 d7d8 b43f
000001d0: 39d3 c00b b48f a1bf 7f8d 1533 4dd3 85bf
000001e0: 3951 d787 a066 9bbf b672 d95e 62b9 a7bf
000001f0: 5e2e 00d8 07c1 b0bf ae1c ce1b e21c b5bf
00000200: 0118 1c12 c1ce b8bf d9b9 fddb 52c5 a4bf
00000210: fc06 eb65 b382 aebf 6f7a c59f 9a55 aabf
00000220: 49a9 e579 0e68 a0bf 51e4 e19f 9245 b4bf
00000230: 863e 47f3 1dfb ae3f 53c8 a7e1 998d b4bf
00000240: d3f9 3060 7b56 a9bf 195c cfeb be91 9d3f
00000250: e9c1 7e40 0f29 a0bf feaa 404b dc5b b93f
00000260: d9ba 76b2 4e47 a43f 7fb8 33d7 cccd adbf
00000270: 7385 bec8 1e5e 8dbf ec09 c8bb fcdb 9d3f
00000280: b6b9 da80 3d4d a03f af9a aa45 f07a a6bf
00000290: 7e7d 1009 50fa b6bf b915 ae8b 17cb 9dbf
000002a0: c0fa 3be0 e951 943f 4ccf 67bf 5111 94bf
000002b0: 6623 e32b 409b 813f cc53 22e6 ea40 873f
000002c0: 335b f1da 48a1 943f d96d 2138 6ba9 8a3f
000002d0: 090c ae9d a6d3 a5bf e4c4 9401 2c75 b63f
000002e0: 43aa 5ccb 2079 b13f e679 3d06 959c ab3f
000002f0: e68b 99fd e767 9d3f 9372 b2a3 2156 abbf
00000300: 6c2a 9eaf 2b68 a73f 6e99 c269 c90a b8bf
00000310: c367 54f0 d286 b8bf 9f12 08f2 7e3f b93f
00000320: 5688 1a7e 086d a03f 3691 1b28 23cc a73f
00000330: df0a 69fb 44ab 9abf c7ed d042 2acb b7bf
00000340: 596b 2486 8d49 b9bf ff09 05db 980a 6e3f
00000350: 1f92 e2ba fb16 9b3f 6695 cec0 d3a4 a23f
00000360: a07d c686 78f7 b23f 3338 73b9 c8c0 71bf
00000370: 84b7 aeef 2067 b23f 7997 493e 05cb 9abf
00000380: a6dc 7461 9558 b6bf e654 c80f b267 b03f
00000390: 8606 4fb2 e0b6 a2bf f9d6 f2fe fedf 9f3f
000003a0: 2600 0c8f 5db5 a43f 48d2 ece0 9ad2 b1bf
000003b0: 4cc0 a967 9932 b93f 13d5 74c7 9c6a a63f
000003c0: 5f12 1987 db46 9bbf e4e1 3c13 2b8a b33f
000003d0: 7f51 ad2a ed04 a93f 49e5 e6c9 c329 b13f
000003e0: 7990 91aa 2088 9cbf 8c90 a605 2408 8fbf
000003f0: 9c7e cf35 5a8b acbf f051 d14c d602 a43f
00000400: 73a6 0a1a 87d7 9bbf 2986 550a 3b1d b6bf
00000410: a693 7b2c 6307 af3f 4ed9 0ad3 f18c b1bf
00000420: e338 795a 5473 b4bf 83bd 09d9 99aa a83f
00000430: 5cdc 16ec 19e9 ae3f 6652 678f fb2b 873f
00000440: 5904 a657 a273 b2bf 8c62 05a5 ce65 8ebf
00000450: f319 7daa 527d 883f 4cd5 85f8 7e38 9cbf
00000460: 0c22 b3dc cece af3f ebe0 1354 8dcd b8bf
00000470: 7037 326b 4e05 b53f 51b6 3c9a 2d85 b13f
00000480: 036e a262 dc36 b43f 1f74 6227 015b acbf
00000490: 0644 7ab6 b489 97bf 63e7 b241 4ca9 a23f
000004a0: ee4e 570b a7b5 b33f 2642 23f5 afbd 8a3f
000004b0: 3f24 a293 eea2 9f3f 2630 1b95 344e 83bf
000004c0: b124 8282 1c10 b5bf f6dc d200 76ee a53f
000004d0: f903 ec82 09af a43f 491c 656f c56f a33f
000004e0: fb83 dd5c 1947 b03f 3e14 6f51 a3a8 b2bf
000004f0: d4bb b550 2daf b1bf fbca 6df2 fcae b0bf
00000500: 6316 5504 3cd8 a03f f6a4 c6ca d034 afbf
00000510: 1f39 b5d7 c5d5 b5bf 13c8 2d6f 333b aa3f
00000520: 19d4 a406 1ef4 8e3f 0343 5cd3 5bf9 a33f
00000530: 0c0c 4066 7984 adbf 260f 32dc d391 803f
00000540: c472 9587 652f b03f dbd5 74c9 d287 b9bf
00000550: 091b ac88 3645 a73f 2cf7 cc52 2ad3 963f
00000560: 0040 995e 50db 803f bfc5 58f7 aca6 9fbf
00000570: f10d 137e 723e b13f 8f62 058e e84f b93f
00000580: 9994 d6ed 77e2 8f3f 261f 790f 52c9 a6bf
00000590: d1c5 3dd3 70ea b0bf d354 7f84 bfea 973f
000005a0: 82e8 f907 1f0a afbf dbb5 c9bf 5d78 b0bf
000005b0: 9ceb 8f49 80c4 ac3f 99d8 21b0 299b 893f
000005c0: b943 a5bc 8778 97bf 66cf ecaf f8e5 783f
000005d0: 66e6 995d 2e4c 563f ef7f 9f9c b689 ab3f
000005e0: 63d2 166d 68a3 b8bf ccde 9b41 81d7 5d3f
000005f0: d9f9 8128 024a b1bf ff24 9102 e671 773f
00000600: 334e 70e7 446c b1bf 0626 15ad a76e a83f
00000610: e059 80d8 1c57 b4bf cc68 e035 a0b7 8f3f
00000620: 0c68 deba 01ca a7bf 3f92 93a0 6f58 a83f
00000630: 6c6f c646 6d6d ab3f cc7b 92ee ec9d b53f
00000640: a0dc 4e97 b7c6 a33f efda 13be 7cc4 a5bf
00000650: f8d5 8ddd e9eb b3bf df6c ff56 5f96 9f3f
00000660: 11da 987e ce26 b93f 3337 9f58 1c12 9a3f
00000670: 333c 3717 b8ed 9c3f 2c0d f90f ae89 b13f
00000680: 765f b9bc 3e07 a03f 71f0 0c05 1558 b7bf
00000690: ff97 7f99 39cc 7f3f 2bb4 ee60 fa9a b3bf
000006a0: 2014 9190 aae1 93bf 715e d162 bb8a b7bf
000006b0: 46b5 d833 f2bf 96bf f92d 6271 0126 b2bf
000006c0: f838 df65 ce5e b23f 9b50 92ad 7f96 b53f
000006d0: ecac 7852 cd0e 913f 8666 55c5 1dc3 9f3f
000006e0: 3c5a 99c6 fd2f a9bf 4cd3 eb95 e254 723f
000006f0: 1ecc d32b 6c44 b13f 669b 9e54 35b1 71bf
00000700: 5cc2 c549 f38b aabf c06d e09f c019 a03f
00000710: 216d 006a 003e b8bf 9919 e8a5 bb4f 4a3f
00000720: 2ca5 344d 69e5 91bf 795d d5af 371f 96bf
00000730: 491e d546 03e9 b3bf 5967 1037 8f02 833f
00000740: 4c5d efec c5c7 90bf ccab eb4f 3eb4 ae3f
00000750: 4403 7db7 5b6b b93f 769d c5e8 e864 a8bf
00000760: 031d a32f 5418 a6bf b64f 3c23 e85e b53f
00000770: 33c4 e3e7 af3c 843f 361e a610 88a2 acbf
00000780: ef9a 9e93 48e5 ab3f 1c60 94ee 8364 afbf
00000790: dc7c 9d3a f6ac b6bf d99e ce78 1f17 b83f
000007a0: 1c68 4971 770f a1bf 3f6c 9ea7 202a ae3f
000007b0: 8673 f020 ee1e 92bf dca2 2a5a f345 b3bf
000007c0: d9b2 fe40 e6d9 863f 2cca 5cd7 fd17 9bbf
000007d0: 36e5 7c5c fbed a3bf 0669 51bc aa18 a93f
000007e0: 709d f418 b3a3 a1bf c449 1a76 2061 b13f
000007f0: 9925 7afa b716 653f 391e 4011 648f 9e3f

bias f8 [64]
-0.0015733005254078725 0.03762619497071913 0.05135852525501319 -0.010160403148385844 -0.08251000676556007 -0.011514075608477815 -0.07163345584379768 -0.09791920100221721
-0.03701732135773981 -0.008042264755550766 0.06409325830600442 0.07120835419838914 -0.07887806301003226 0.09877584224573575 -0.03658964587826332 0.024005509539509685
0.019799818413005734 0.03444017853573296 -0.0027834062673077753 -0.05216977209531242 -0.04558916305431813 -0.09749489799924385 -0.0767259367387274 -0.05502248071484311
-0.05677089886289242 0.02025194799581669 0.03819395589196098 0.0192568097241975 0.008723971103706018 0.0503863529553894 0.052741623795178195 -0.07062703326699644
-0.03489562050360917 -0.06856139570453666 0.02562671793379745 0.03451720566080816 -0.07579698064336203 0.006385353374448233 -0.07589367764569227 0.0841143345454406
0.056812214229275584 -0.014616341484309014 -0.0814660370771455 -0.015508470978857259 -0.02099136458337745 -0.004328797567558196 -0.016482654277356092 -0.09066927522320381
0.03178538658379282 -0.003613584353711752 0.05238526584775216 0.05128623193316178 -0.04761803163222596 -0.014443043918822807 -0.021573930446028025 0.016972366336729917
0.06839498721496799 0.07584563479985035 0.01958620960880928 0.029728133031811033 0.08695329090005902 0.034883067276159356 0.043866521481514 0.003766389065015363
00000000: cd02 6b93 e6c6 59bf 8a8b be99 bd43 a33f
00000010: f4a0 ae24 aa4b aa3f 4056 e439 face 84bf
00000020: 179c a634 601f b5bf 34e8 7411 b194 87bf
00000030: c208 26f6 9156 b2bf 2279 f495 3b11 b9bf
00000040: 5de9 3b31 eff3 a2bf a70c e380 7678 80bf
00000050: a780 5170 6a68 b03f baeb 7bf0 b53a b23f
00000060: 7dfa ff4c 5a31 b4bf e78d 14a4 5f49 b93f
00000070: a3b6 d6c8 e0bb a2bf ad83 9579 e694 983f
00000080: 07d0 3352 6746 943f 8a70 f5a0 24a2 a13f
00000090: 0058 77dc 39cd 66bf 9770 fa11 ffb5 aabf
000000a0: fd98 bd78 7657 a7bf f200 6ff6 6cf5 b8bf
000000b0: 8f3c 0c9d 4fa4 b3bf f719 6e16 e82b acbf
000000c0: 4d17 f643 1311 adbf ad0f 4a39 edbc 943f
000000d0: 14f3 eb7e 288e a33f 1a80 f69f 0eb8 933f
000000e0: b340 a794 dfdd 813f 405a 3774 3dcc a93f
000000f0: ed2b ad3a f300 ab3f 8d62 18fe 9c14 b2bf
00000100: 905a acb9 d6dd a1bf 87b0 5158 3d8d b1bf
00000110: c0c8 b7ed e33d 9a3f cdc9 ec3a 3dac a13f
00000120: 5fb0 ff50 6e67 b3bf 00a2 aa3e 8727 7a3f
00000130: 441f 769f c46d b3bf 385a ff5b 8488 b53f
00000140: 4a94 4194 7d16 ad3f 0057 4c25 2cef 8dbf
00000150: f826 fb4c f5da b4bf da3d 52bd e7c2 8fbf
00000160: 3a3c 89a1 c27e 95bf 6719 bdbf 12bb 71bf
00000170: 6742 4a34 d4e0 90bf 5aef d503 1a36 b7bf
00000180: 9078 bc97 2c46 a03f 3460 db53 3c9a 6dbf
00000190: 207b 37d7 3dd2 aa3f 07a8 c661 3042 aa3f
000001a0: 2ae0 1e01 6461 a8bf 0dcd 498a 5094 8dbf
000001b0: 34f4 d8f6 7917 96bf 1a6f 6839 3461 913f
000001c0: bb72 4c79 5582 b13f cc7c 0299 9e6a b33f
000001d0: 7ac6 e346 680e 943f 2d31 923c 0d71 9e3f
000001e0: 0201 b224 9242 b63f 6742 4582 31dc a13f
000001f0: 4a05 4e36 ac75 a63f 00cf 76bb b0da 6e3f

weight f8 [64, 64]
-0.050234200749382306 0.005663159158737357 0.1145128320345251 -0.005612942552551236 0.030529682759976664 0.05016483697945214 -0.012481372819576118 0.04751652658499635
0.06901710273648985 -0.04585310560960972 -0.054420221897965575 -0.004106672650129233 0.06056519248051522 -0.01658785638665058 -0.07384861533006683 0.11911793046350895
0.026848645082170688 0.07063342174271571 0.05377994414270811 -0.07269962980786489 -0.028997313124009518 0.04536133051466917 0.02577497508385373 0.09426173042702028
-0.12009647826474891 0.05001792524737086 0.055966756392240684 -0.03947965944985143 -0.07516013254208535 0.06812680883990095 0.10777597262544607 0.014725106390936658
0.026977466109874 0.014626542414056002 -0.048420083484450864 -0.03313936656628035 0.07327735045100574 0.07756622103796958 -0.05588976567289968 0.06322179469551766
-0.08920537705801555 -0.056967987778852085 0.07701886811748453 0.09118039590727063 -0.12324869740787207 -0.05984736003577309 -0.038392015942299705 0.004650616811027102
0.09958548701715754 0.0441054208239282 -0.008188174470908803 0.08301026068001098 -0.008912117945381602 -0.08644588376189953 -0.08447562457943782 0.04146537761700849
0.006137438639425951 -0.048504290843229596 0.08360389668539385 -0.020845620655616928 0.11961491819756044 -0.10600594514117224 0.014927161262056314 0.08546552852116081
0.10687961363183669 -0.12264609226077665 -0.06364100867975699 0.07856788608365599 0.11019567277785296 -0.09841923090962292 -0.055749104637273054 -0.05842609211257276
0.10849192171964193 -0.057843935193608885 -0.03703294800212006 -0.0038054173888209526 0.007300172245788271 -0.0742837358953126 0.10521604477622708 -0.07950607001372424
0.10535553855945194 -0.014218489732423538 0.11736468485738806 -0.11762347029550486 -0.07171865530267905 -0.09719955844600524 -0.08364775193885064 -0.09447988923890278
0.06672281612822574 0.12332794717247646 -0.11543351814065365 0.06222834667881149 -0.11851010575948044 0.07500679440527659 -0.10036281422320577 -0.014154666891912275
-0.02353256311604956 0.08146961279538574 0.03562334161054622 0.08763635207132227 -0.04437097321693339 -0.1179899670785373 0.1039516471806995 -0.02881505572303397
-0.05200510239585073 0.0071648812139036 -0.11243472176371462 -0.003965377913709211 -0.029633429003052405 0.03287853263008763 0.025965357341675373 0.05398951826201156
-0.05754885363546885 0.07417575817412174 0.03447261001880194 -0.03888631220385865 -0.11439763678432106 -0.08459310798036328 0.0092520284398076 -0.09009632098462457
0.025110410342154024 -0.04190528516033897 -0.11682302768422319 -0.013238350818310566 0.09151217820232861 -0.006310840771272585 0.04797511314928276 0.11910650431670257
0.009754508829421525 -0.11047652362205608 0.06389389391131502 0.07366455327147799 -0.08352548406369072 0.06102549087282549 -0.09951731677144283 0.0010421309452013914
-0.09122488887959955 0.024859733233449085 -0.004712766418064478 -0.08202289181328042 -0.045874150441671695 0.03416722123218615 -0.04211675845290979 0.0929949531329659
-0.12463332481019175 0.054715879337915045 0.013071928869749143 -0.10544309478160928 -0.0570795725673531 -0.08664222765723097 0.1175940993250194 0.0735114761239178
-0.024811087675495832 0.003397817251054008 0.08213842277137974 -0.11287116905241766 -0.10864073058559422 0.12010203579136887 -0.11954834203518559 0.11508460806697275
-0.010988072378943834 0.06362298399946635 0.0009180760915411256 -0.10326226673608209 0.0403206054084719 -0.013452436263145127 -0.1006856304536929 -0.05603503588713229
-0.05005610461808629 -0.09991509032081085 0.08979353439955438 0.08661302657972571 0.033653743969260345 0.03622119502321255 0.12026300161576257 0.03565833707872603
-0.020502748915578402 0.07342850704852112 -0.06270155191639872 0.019037200991510125 -0.07952517139463049 0.04996937470082118 0.054797932642419965 -0.05295410527234922
0.08726607129572246 0.10655122249629358 -0.030771484920118632 0.031014367140551998 0.08607675177061884 0.04242823973294348 -0.06965876257839189 0.1157420617217106
0.016151822037608506 -0.05576494773409226 -0.12173901634275884 -0.0356456628222321 -0.09690206080112722 -0.04047455520087594 -0.023469631018924044 -0.08128221803051848
-0.07549219029118416 0.048288426403579575 0.08896744138538114 0.014173797403366715 0.009653208925930438 -0.022424721882330797 0.01710659348667706 0.04116331765222494
0.05750643513659997 -0.07719873299862116 0.11786832997601983 0.00896875994662241 -0.08134098756935391 0.1236080546144865 -0.10176766706926184 0.061196556341735785
-0.016545782575137332 0.09174731554982828 0.05743703460073409 0.018540083873764126 -0.0808683040172757 0.06332006472492734 -0.04295112955259325 0.06048445167632093
0.04442881031350262 0.09864177776759957 -0.09679873501090684 0.012471877394272244 -0.10381093856350766 -0.0710384157317226 0.05739741534101863 -0.03812461301528252
-0.10790092807678874 -0.12435860558667826 -0.10154432175628438 0.014580122695038692 -0.01849203999348561 0.06483278936085059 -0.04042208933726834 -0.06075880439445199
0.04681978969228128 -0.059521515944139784 -0.008629318820369073 -0.09891413502443559 0.0982022912623418 0.09145516741560426 0.053521345726611345 -0.10805357115458274
-0.09732579402032433 0.044059843064240344 -0.04363975717812576 0.08920246969110023 -0.020526036025642676 0.10557169095582238 -0.05517032531925139 0.02608293602432343
00000000: 9bf5 b712 4cb8 a9bf 5fa5 0fb6 4032 773f
00000010: 3785 8f84 b650 bd3f bf19 29cb 98fd 76bf
00000020: 97a0 0b54 2c43 9f3f 4bca 789c 34af a93f
00000030: 9fd9 8d80 d58f 89bf 3b76 670f 1654 a83f
00000040: 6f2e 1ed7 1aab b13f 4bd0 06ea 0e7a a7bf
00000050: 2fed 95a2 f7dc abbf 9f96 a48b 28d2 70bf
00000060: d7a2 f5a1 6602 af3f b700 c432 68fc 90bf
00000070: c190 b22b bee7 b2bf b93d b53f 837e be3f
00000080: a782 4712 367e 9b3f d9b8 632c 0815 b23f
00000090: 4b1a 8c7a 0b89 ab3f 15c2 7464 719c b2bf
000000a0: b770 28be 78b1 9dbf bf89 20ae 9939 a73f
000000b0: df55 294c c164 9a3f abcb 7269 8921 b83f
000000c0: 010a 838e a4be bebf 176e 4d12 f39b a93f
000000d0: cf59 bcb8 aca7 ac3f 1f7f 638c ad36 a4bf
000000e0: 4b35 3bc7 b13d b3bf 6fbe f22f c270 b13f
000000f0: bb8b b8c5 3497 bb3f 9f96 0853 3228 8e3f
00000100: 2ff5 ae1a fb9f 9b3f af4e 934a 85f4 8d3f
00000110: a713 1266 84ca a8bf 4f83 399f a4f7 a0bf
00000120: 6b7f b9ef 4dc2 b23f 15e4 a13e 61db b33f
00000130: eb0e 7e57 959d acbf b596 9cb4 4d2f b03f
00000140: 376e 17e1 29d6 b6bf a7b2 db78 e82a adbf
00000150: 0b52 bd2f 82b7 b33f 6543 7532 9957 b73f
00000160: 7b33 a404 3a8d bfbf f30e 362c 50a4 aebf
00000170: e3a3 cc49 1ea8 a3bf 9fe0 c071 860c 733f
00000180: c119 e539 6f7e b93f bfb9 0758 fc94 a63f
00000190: bf2e 882c f6c4 80bf 9363 da12 2940 b53f
000001a0: 3f77 e838 8440 82bf bf94 a143 5121 b6bf
000001b0: 61bb e0cc 31a0 b5bf 0b0c 9031 f33a a53f
000001c0: fff7 cc23 9223 793f df51 c6ed 8dd5 a8bf
000001d0: 53f9 14a2 1067 b53f c73b eceb 8d58 95bf
000001e0: 59b1 c551 159f be3f 891a 90a3 3423 bbbf
000001f0: 0f8c 8aab 2192 8e3f a509 efa1 11e1 b53f
00000200: 2569 285d 765c bb3f 1303 3efb bb65 bfbf
00000210: 41c9 f6f2 c64a b0bf 8bc2 3e65 061d b43f
00000220: 3bd9 bd9a c835 bc3f c9e6 0db2 0032 b9bf
00000230: b790 658a 258b acbf 1f92 b655 06ea adbf
00000240: 8782 aa67 20c6 bb3f 8363 db63 b89d adbf
00000250: 5b4f 1689 fbf5 a2bf 7f96 71e7 892c 6fbf
00000260: 7f30 d010 c9e6 7d3f a389 4b48 4204 b3bf
00000270: db0f 544f 70ef ba3f d1dc 8a82 825a b4bf
00000280: 5bb8 90a0 94f8 ba3f efb4 3163 951e 8dbf
00000290: c9f6 2aab 9c0b be3f c545 295e 921c bebf
000002a0: 27c1 095f 275c b2bf 5f13 b6fc 11e2 b8bf
000002b0: b716 f666 f069 b5bf 8529 6982 d52f b8bf
000002c0: b9f1 2a19 bf14 b13f d3e1 c99b 6b92 bf3f
000002d0: 93bd 4611 0d8d bdbf 2f42 bdd3 64dc af3f
000002e0: 2383 7ba4 ad56 bebf 31ce f230 a533 b33f
000002f0: bdbc d29c 60b1 b9bf cfa0 173b 1ffd 8cbf
00000300: 5fe0 e593 eb18 98bf 5def 924a 31db b43f
00000310: 7b10 62fe 383d a23f 494a 1602 566f b63f
00000320: ef82 b7cd cab7 a6bf 5bc2 db29 9734 bebf
00000330: b9a5 013d 939c ba3f f7f4 d9a7 b181 9dbf
00000340: bbd6 07ac 69a0 aabf 1f22 e527 ec58 7d3f
00000350: a9f6 e89c 85c8 bcbf ff63 4a07 003e 70bf
00000360: 37ec bec1 3958 9ebf ebfc c57c 74d5 a03f
00000370: bf1f 72a2 a996 9a3f 7b36 869e 83a4 ab3f
00000380: 17c1 9218 0b77 adbf 2b8c 83b7 2efd b23f
00000390: 9beb 46d9 64a6 a13f d3f0 5a1e e8e8 a3bf
000003a0: db74 badc 2949 bdbf c31e 3ed8 e4a7 b5bf
000003b0: 5fa9 903c baf2 823f fd6e 1e70 8d10 b7bf
000003c0: 47b3 d51c 8bb6 993f 9f1f 960a 9c74 a5bf
000003d0: 0bcd 522b 1de8 bdbf af7b 8a5e b51c 8bbf
000003e0: d991 9094 576d b73f bfe9 906b 65d9 79bf
000003f0: e702 ffab 3190 a83f 81f7 c78c c37d be3f
00000400: 7f8a 4903 2cfa 833f 79b8 ee7f 3048 bcbf
00000410: 8560 c3a8 595b b03f 25ea 2c1f aedb b23f
00000420: 9da5 6f16 ed61 b5bf cfd1 0aaf bb3e af3f
00000430: d944 eb84 f779 b9bf ff80 fa94 0313 513f
00000440: 77b1 51aa 835a b7bf cf58 e674 d474 993f
00000450: 5f77 3a9a b14d 73bf c383 dcc5 73ff b4bf
00000460: 57ed c10f d17c a7bf db2a 93b3 5d7e a13f
00000470: 376a 56e8 5390 a5bf 1f2e 666a 84ce b73f
00000480: 5930 0d36 f8e7 bfbf 670d a840 b803 ac3f
00000490: efff ed97 74c5 8a3f f710 ad93 51fe babf
000004a0: d393 e4a2 8839 adbf 718a 3d5e 2f2e b6bf
000004b0: 67b4 cd9a a51a be3f b539 d5e9 a5d1 b23f
000004c0: efe8 93e8 1368 99bf bfef 123f bdd5 6b3f
000004d0: 2150 8c0f 0607 b53f c7cd bdfb 1fe5 bcbf
000004e0: c9f0 e000 e1cf bbbf ed2d e8cb 01bf be3f
000004f0: 6707 555b b89a bebf 21ae eb53 2f76 bd3f
00000500: bff1 1b1c ea80 86bf 3b38 8d8b 9849 b03f
00000510: ff92 ea64 6115 4e3f 41d4 8a5a 656f babf
00000520: 5b2a 2b03 e7a4 a43f dff2 696e f38c 8bbf
00000530: edca f991 88c6 b9bf ab7e 21cd 9fb0 acbf
00000540: ff83 9928 f4a0 a9bf 5305 4e0d 0994 b9bf
00000550: 0f6a a385 b5fc b63f b947 9174 452c b63f
00000560: dfcb 7843 103b a13f c3ed 17a0 958b a23f
00000570: 5bc6 db5a 8ec9 be3f 436e 2a3f cf41 a23f
00000580: 6f33 4830 acfe 94bf b914 5eec 35cc b23f
00000590: 51ae e37a 350d b0bf 8fe5 a9ee 7c7e 933f
000005a0: 8b46 59fa c25b b4bf 5f7f 48fc 9595 a93f
000005b0: 83da 2c81 790e ac3f 3fd8 aaec cc1c abbf
000005c0: edf9 43ba 1157 b63f 296c f8df f046 bb3f
000005d0: c76a 8665 8f82 9fbf 6f9a 4cf2 3ac2 9f3f
000005e0: dbfb cc41 2009 b63f cbe0 287c 27b9 a53f
000005f0: f96d 271b 28d5 b1bf cdc9 dd91 45a1 bd3f
00000600: 0f7a b06d 1a8a 903f 23e9 8f25 398d acbf
00000610: 37e0 d6c5 492a bfbf 5ba7 21f8 2540 a2bf
00000620: db4b 0ece 92ce b8bf 6fd9 d0b5 14b9 a4bf
00000630: 57ad b346 6c08 98bf a7fa 2f54 e9ce b4bf
00000640: 796f 67c8 7453 b3bf 937b 5bb8 42b9 a83f
00000650: cfb4 28fb 91c6 b63f 9ff1 75e2 2607 8d3f
00000660: ef4a 1bc5 0fc5 833f ff0f 6d9c 81f6 96bf
00000670: 57f4 480e 6484 913f b3ea 38be 5b13 a53f
00000680: a746 71c4 7b71 ad3f 0b8f 85d1 4bc3 b3bf
00000690: 192c 7b6e 9e2c be3f 0f58 4095 365e 823f
000006a0: a749 6f51 c3d2 b4bf 1566 1708 c7a4 bf3f
000006b0: 454a da21 720d babf db2c 3bb0 2755 af3f
000006c0: 6f11 30ac 60f1 90bf 1f45 c887 c07c b73f
000006d0: 8bf5 6012 6368 ad3f 7795 9cf7 2bfc 923f
000006e0: ed84 0901 c9b3 b4bf 2796 2c67 be35 b03f
000006f0: 1b61 82c1 b0fd a5bf 778a bb6b d1f7 ae3f
00000700: 9be6 977e 5fbf a63f cbf8 8769 9640 b93f
00000710: f77f 2a49 cdc7 b8bf 7f97 390c db8a 893f
00000720: a9ea 188a 5a93 babf 85d0 53d8 922f b2bf
00000730: 237a 87ab 3163 ad3f d786 25bc 1185 a3bf
00000740: 4740 4c2d 659f bbbf eb8f f82f f7d5 bfbf
00000750: 81a9 0905 cffe b9bf 2fc4 2cf1 2edc 8d3f
00000760: 878b 08cc 93ef 92bf 4968 03b6 e198 b03f
00000770: 53a7 7a3f 34b2 a4bf 5bef a22b c71b afbf
00000780: 5f61 1173 c3f8 a73f 5fdf c6a8 9a79 aebf
00000790: af41 f690 3fac 81bf b1c5 0acf 6f52 b9bf
000007a0: b730 5d0d c923 b93f 5ba8 1919 9b69 b73f
000007b0: cb41 115b 2667 ab3f 632f 531a 66a9 bbbf
000007c0: e5e0 5fde 57ea b8bf 6b3c 0e02 038f a63f
000007d0: 4357 c543 f357 a6bf 6fb3 0b1a f9d5 b63f
000007e0: 6f5f c9f5 c604 95bf ade6 0910 bf06 bb3f
000007f0: 3367 e9ed 483f acbf df1f d534 7cb5 9a3f

bias f8 [64]
0.12161181308439445 0.02793124750889378 0.046565628234359835 -0.11088557543152153 -0.000767026987714442 -0.06736964545019461 -0.12431839969491096 0.04725212118608457
0.07561795326004966 -0.017162850624766773 -0.11968397816738169 0.09796969712603618 0.09089681272611286 0.08458028666732789 -0.06276611731378767 0.05535669936767826
0.05367742805221434 0.02031501801238536 0.09912962465205366 0.11259195127316524 -0.12284552922911199 -0.11430164200876194 0.04412461959536307 0.1193615592296606
0.016522457953817404 0.07691157007229005 0.07140075450950592 -0.0829245699726987 0.1064551464073876 -0.10248447043541992 -0.05869139977359625 0.03005842335224923
-0.01900640271146309 0.11084539378481362 -0.057417369225210846 0.015931304195343166 -0.030226101710512127 0.05984573604606658 0.11681605468860948 -0.06951492510352528
0.0006140656577638959 -0.00916930670994176 -0.030431846138762375 0.00043910657349799376 0.08197547652877371 -0.06572058400639141 -0.0945158158258774 0.04288042240244261
-0.010367028440698062 0.049642957741616256 0.037404521035984795 0.01328704197585276 -0.07960584354576122 0.001610915362043358 0.0995014752873514 -0.08029521745712095
0.06763790282197132 -0.02572372576118037 -0.07991302384186519 -0.048822493614196466 0.05203172371477363 0.004712123307394567 0.11718382969543942 0.006134396149472837
00000000: 9436 01a8 f321 bf3f c845 594a 029a 9c3f
00000010: 00bf c434 73d7 a73f 3697 1340 ff62 bcbf
00000020: 00af e7e9 4922 49bf aea2 f317 233f b1bf
00000030: 160f fba4 54d3 bfbf 805c 5216 6e31 a83f
00000040: f40b 3ebc b25b b33f c8da 8e68 2393 91bf
00000050: 6c86 15f4 9ba3 bebf 0ec5 27c5 8a14 b93f
00000060: 7a23 f875 0345 b73f ba5a 1fbd 0da7 b53f
00000070: b0dc 28b5 7011 b0bf 0c20 cc9a b657 ac3f
00000080: e409 099c 9b7b ab3f e862 ecc7 75cd 943f
00000090: e000 f21f 8f60 b93f 80d5 827c d3d2 bc3f
000000a0: 82b4 7ffa cd72 bfbf 0286 4e56 df42 bdbf
000000b0: c096 388c 8097 a63f 4e7c 4aa9 7a8e be3f
000000c0: 30a6 3e62 43eb 903f d4fd 2406 7ab0 b33f
000000d0: 722e 87e1 5147 b23f 884e 116c 8b3a b5bf
000000e0: e684 4ffc a440 bb3f bc35 de18 6c3c babf
000000f0: 9c09 2b95 cc0c aebf 90a5 11a5 a2c7 9e3f
00000100: b0c9 3d18 6a76 93bf e8cf 371d 5d60 bc3f
00000110: b8da 1636 cf65 adbf 60aa 01ba 4b50 903f
00000120: 4831 5459 97f3 9ebf 50ed 3eae 19a4 ae3f
00000130: 120b 892e a8e7 bd3f c64d e7e9 bacb b1bf
00000140: 00f4 76f5 271f 443f c0cd 9183 5bc7 82bf
00000150: a009 b19f 8629 9fbf 00d8 645f fcc6 3c3f
00000160: 82dd c346 58fc b43f bc41 fb6e 10d3 b0bf
00000170: 7e49 ed41 3032 b8bf 40dd b637 6cf4 a53f
00000180: 9041 e000 4f3b 85bf 0833 f43f cd6a a93f
00000190: 20ea 2475 af26 a33f 5095 f995 3c36 8b3f
000001a0: 447b 996e 0c61 b4bf 807f fb32 ab64 5a3f
000001b0: 264f 43be ed78 b93f 2ee8 0035 3a8e b4bf
000001c0: fe23 97b4 b750 b13f 308e 8003 5257 9abf
000001d0: 1adf ec0f 2e75 b4bf 34a8 c30a 43ff a8bf
000001e0: 643e 6bef e6a3 aa3f 00ea fff7 044d 733f
000001f0: 4a75 296c c2ff bd3f e0ac 7b6d 6120 793f

weight f8 [2, 64]
-0.07978702832267313 -0.04316931797495723 0.10643739690142622 -0.07345551830636292 0.07763584890985943 -0.0884229240177785 -0.0691919456102267 -0.048936400203319484
0.02021437993723665 0.09901310260722158 -0.017848587946235114 -0.03848155959890039 -0.07439576864713428 -0.05849055686438372 0.023823715540723264 0.11279413684784
-0.10452519983629872 0.06915243546310261 -0.12169076781003609 -0.005210104698389339 0.06212687691791018 0.09902006583478389 -0.09314745879746612 -0.003985015715003481
-0.015479353784398435 -0.05638433184133045 0.11219263711618917 -0.0924135035789302 0.05957762070088193 0.10373891731441286 0.017848319694884842 -0.012211366883117523
-0.0998367080903786 -0.11625381679770598 -0.07025798813847621 -0.020116966280119882 -0.08420608658343211 -0.0367257721175542 0.11888731321066605 0.08458234364320945
0.0647351458871998 0.08915054549391647 0.0791004055109223 -0.0714996955283319 -0.0448691834379159 0.118362765268356 -0.105638213459768 -0.012407370183120823
-0.08994962894446822 0.06384042572473252 -0.09250462602572553 0.0766620747727307 -0.07864649907930597 -0.10389707219492704 0.004330086919180103 -0.031069425643192896
0.06800795193655747 0.11106627187799066 0.08019965860008264 0.11519881759490884 0.049201671588527916 -0.016964635622992854 0.05677567224720125 0.08430879435016177
0.012816582381919793 0.0064174383984183505 0.006470557499770129 -0.08414282438112745 -0.0023240890782559027 0.10441949080315747 -0.012476715030312722 0.01464753390393894
0.06534009810143097 -0.028202122157557793 -0.055817216619841035 0.05801776488049503 0.09624071028757701 -0.0679000929639307 -0.0899731841984212 0.03303057147637475
0.06135808046156873 -0.009040109886464308 -0.05096548774323114 -0.09434984735134798 0.06409955279291944 -0.027077604297115084 0.09605074342649016 0.03170793717685307
0.014255501385729312 -0.10459090331987593 -0.06880839837627688 -0.09299560685475187 -0.053482488428659346 -0.08554971777175639 -0.007579838435928742 0.10148507361951715
-0.007434933740578436 -0.07725961440257344 0.009855192592806176 0.03590016079587743 -0.09657758731351211 0.12082631013888999 -0.04398573946432865 0.05495525650723473
0.062371969404018866 -0.11031065913767461 0.08265426711665518 -0.11135292264772755 0.09237365108012112 0.03717072020155487 0.10694167046606594 -0.11502507831756044
-0.04611983978757544 0.0673694840982217 0.0004975713793638202 -0.004906850413860102 -0.009118758799975283 0.03933534987955708 -0.07419427415796533 -0.04033657243229615
0.07225570977053715 -0.09352248803635325 0.023086908393647767 0.0423777807183866 -0.07768024656191098 -0.062440797941383595 0.07070389778760698 -0.042460298347420926
00000000: df78 4a35 ec6c b4bf fb3f c9f1 491a a6bf
00000010: cb53 c332 7b3f bb3f ab28 d618 fbcd b2bf
00000020: b1a6 1068 f1df b33f 4f80 df7e e2a2 b6bf
00000030: 89e3 8a37 90b6 b1bf 6319 ea1c 310e a9bf
00000040: 2718 f512 14b3 943f 7dd1 9235 ec58 b93f
00000050: 7f12 0976 e646 92bf 6be4 f3df dab3 a3bf
00000060: 79db 4ce1 990b b3bf 6bf7 b669 79f2 adbf
00000070: 7f69 777c 3e65 983f 4f28 f198 13e0 bc3f
00000080: d99e e7da 29c2 babf f3b5 c058 f9b3 b13f
00000090: c11f f84b 2027 bfbf 7ff3 9cd4 3057 75bf
000000a0: 1f4d 2111 18cf af3f 6b7d 6808 6159 b93f
000000b0: 9199 3d09 83d8 b7bf 3f43 b882 9752 70bf
000000c0: 6f3c 23b2 a3b3 8fbf c7d8 873a 68de acbf
000000d0: 6d1a 441b a8b8 bc3f 818d 944f 69a8 b7bf
000000e0: 13b2 f738 f580 ae3f 0717 3039 a28e ba3f
000000f0: 3728 8375 d446 923f 3f36 38eb 4502 89bf
00000100: e13f 3004 e68e b9bf 296b 2e65 cfc2 bdbf
00000110: 2367 5671 6dfc b1bf 2f47 12c1 8a99 94bf
00000120: 09ff ffb3 878e b5bf db9a 546c b8cd a2bf
00000130: b12c 2622 666f be3f 1541 c43f 30a7 b53f
00000140: 7bc0 7c86 7b92 b03f 6b22 51f5 91d2 b63f
00000150: 4d0e c596 ec3f b43f 37d8 f7d5 cd4d b2bf
00000160: 0f9b edf6 17f9 a6bf 5947 e4ad 054d be3f
00000170: 817f 0420 1b0b bbbf 5fb3 5309 0969 89bf
00000180: 5794 9a5a f006 b7bf 7383 a69c d857 b03f
00000190: 095b 8217 62ae b7bf f10c fe2f 20a0 b33f
000001a0: 4792 7d4d 2d22 b4bf 6f34 3a9f ff98 babf
000001b0: 5fb5 4edb 6cbc 713f b70c 2cdc a9d0 9fbf
000001c0: ed79 6f19 f868 b13f cf94 67d5 d66e bc3f
000001d0: d374 d6fe f687 b43f 13a6 1b72 ab7d bd3f
000001e0: 7b34 c324 f630 a93f b7da c16c 2d5f 91bf
000001f0: 9f31 056f b311 ad3f 45c7 7fda 4295 b53f
00000200: 9f28 6a91 943f 8a3f ff8d b900 2c49 7a3f
00000210: 1f0c 930d df80 7a3f abf6 e856 628a b5bf
00000220: 3ff2 b0d2 f709 63bf 4f85 105a 3cbb ba3f
00000230: 1f36 2258 648d 89bf 0ffe acb8 86ff 8d3f
00000240: 438c 76f0 20ba b03f 9fc6 6061 04e1 9cbf
00000250: cb36 dfff 1294 acbf 4f5b 7f25 81b4 ad3f
00000260: bb9c 3a2f 3ba3 b83f c5e9 ac86 e661 b1bf
00000270: 2b32 a68b 7b08 b7bf 7bb8 8410 62e9 a03f
00000280: 3b05 db89 536a af3f 7f52 8402 9f83 82bf
00000290: 6bea 29fe 2518 aabf 9fb2 c1c4 4f27 b8bf
000002a0: 770e ef0a d468 b03f 4ffb a343 3bba 9bbf
000002b0: 83f4 c511 c896 b83f 537b 65d2 053c a03f
000002c0: 0f17 eb01 fd31 8d3f 8dcc 372d 78c6 babf
000002d0: 135c b75c 6d9d b1bf 9be2 1c62 8fce b7bf
000002e0: a369 6b85 0e62 abbf 5300 0318 96e6 b5bf
000002f0: 3f79 0f63 090c 7fbf cd5c 3a00 edfa b93f
00000300: 5f29 38d4 1774 7ebf 9f1e 293d 49c7 b3bf
00000310: 2f19 0e8f f52e 843f cf30 1481 8161 a23f
00000320: 2bc2 090b 4fb9 b8bf 8ffa 8a1a 79ee be3f
00000330: c7b5 fa80 4c85 a6bf 0b3c e26a 1823 ac3f
00000340: eb03 8e01 38ef af3f 1382 65c1 513d bcbf
00000350: db10 247e d428 b53f 9704 1609 a081 bcbf
00000360: 5bb7 66b2 cca5 b73f efd5 4467 0a08 a33f
00000370: 8f3a 3b81 8760 bb3f b500 9895 4872 bdbf
00000380: f735 2b07 059d a7bf dd43 f362 203f b13f
00000390: ff28 a166 ee4d 403f 1fbf dca0 3419 74bf
000003a0: 0fa9 9b16 dbac 82bf ab6b 9e52 c323 a43f
000003b0: 5115 0f5d 65fe b2bf 7fe0 dbc6 fea6 a4bf
000003c0: dde9 69a6 597f b23f 2383 8efb 16f1 b7bf
000003d0: 37dc 1032 18a4 973f 4f6a 865c 8ab2 a53f
000003e0: e953 8746 dae2 b3bf 7353 3082 3df8 afbf
000003f0: 478f b290 a619 b23f 9fa7 8f31 5bbd a5bf

bias f8 [2]
0.08572328439186114 -0.05057083928884795
00000000: 0e00 f80e f6f1 b53f 9cf5 c0c9 6be4 a9bf
