2022-07/ofml-drl-team1/test_cases/rotatingCylinder2D/policy.pt (torch, 95972 bytes, 6 tensors)

weight f8 [64, 100]
00000000: 2fda 9e73 461c ab3f 5924 365e 1bdb 91bf
00000010: 780c 6202 b944 b43f a6fa 8588 e503 a83f
00000020: 26b7 4709 034b 963f cc20 e4cb 646a 5a3f
00000030: d689 dd16 a1c2 a5bf e6d4 06e9 6014 85bf
00000040: a95d 2337 830e a4bf 66c4 64b6 9f4f 5bbf
00000050: 5070 703f 88e8 b33f 16de c7df 35bd a3bf
00000060: 3f8a 905d 2b74 a73f ff9c 087c cead adbf
00000070: 806a 8a19 d34b b43f 9f83 265e 3dd4 aa3f
00000080: ec8b 3d47 58e7 9ebf 0082 0914 91a6 a3bf
00000090: e6df 6a64 cc86 a7bf 665f d092 fef7 8c3f
000000a0: fe83 6e22 c0e4 b3bf acdf d1a3 a77e 9a3f
000000b0: e00f 67b9 a6f2 b0bf dcc7 6c45 b96c a33f
000000c0: cc4b 7f9b 713e 86bf 4625 846c 2bd1 963f
000000d0: 560a b007 ad01 b1bf 4c3a e668 7488 b1bf
000000e0: 791e df7e ac00 923f 6668 9a22 567e 95bf
000000f0: 3311 6ede 6b2f 973f ec39 0ec1 3975 aebf
00000100: 3770 f80a d3c4 b8bf c69d b834 d9ce a2bf
00000110: 8c66 a021 9ec4 ad3f 863a 2ab5 96aa a3bf
00000120: 3345 a07f cc51 adbf d348 8bbb e16a 923f
00000130: b382 ae93 0bac 7bbf a656 43a8 8e8a 923f
00000140: 6cba 3278 aecb adbf eb02 e81b a420 b6bf
00000150: 3021 1f9f 5e14 b53f f341 1d8a 39b7 87bf
00000160: 6691 8f77 c1d6 6d3f e3a2 abc2 1583 b33f
00000170: 8139 0456 7bc5 b13f 268c e76f 0600 973f
00000180: 9693 a127 4247 b13f 8087 2c95 c57a 803f
00000190: 59f5 fea5 39cb a73f 8904 db55 e8ad b3bf
000001a0: 466b 4c5e 339b 9ebf 242a 2afe 7e75 b7bf
000001b0: f64a 1895 a40f b03f b1e2 dbec 2638 b13f
000001c0: 664b 3202 14b9 a6bf f3ee f464 3241 a4bf
000001d0: 492d 7d80 9f9e acbf a319 df1c bc55 a1bf
000001e0: f904 fa8f 8327 a53f 5355 0eef 10db b3bf
000001f0: ff23 a45b 1922 5e3f 5f8c a9c2 5bac afbf
00000200: 33d2 3658 be22 8d3f f15c 655d a7d4 b83f
00000210: 5ccc c7ba 77c1 a13f 53d0 7687 15f1 b13f
00000220: 33dc e41e 2163 9cbf e835 9cc4 f820 b33f
00000230: b9a5 f008 8d04 9e3f 1eaf 64fc ff0a b93f
00000240: b965 7faf abb2 a53f 26e8 0f0d 6d97 b0bf
00000250: 4992 5a8f 00e8 acbf 03e4 3c23 fd7e b43f
00000260: abef abbe 2763 b6bf 323b 1fb0 d79c 6e3f
00000270: 8c8c 15e1 253c a23f 1cfa 2f4d dc3f b8bf
00000280: 7348 6267 1ada b7bf 7bfd afc3 8706 b03f
00000290: ccda d653 5fef 6ebf a0ae 5125 ce03 913f
000002a0: 69f8 fe7c 779b b73f 067e 23c0 3061 9dbf
000002b0: 1904 6874 e060 a83f ce52 9ab6 7065 b13f
000002c0: 0070 a11c 2838 70bf b1fb 54dc 890f b53f
000002d0: c974 e9a6 ecc7 a93f 33f9 8e3e 664a 993f
000002e0: 3e23 c470 ae33 b9bf ac05 579e 80d4 a4bf
000002f0: 78b1 a9d5 9b9a b33f 33e0 8b97 0888 8bbf
00000300: f1bf 35da c3fe b83f 9fa0 2c5c 06d6 acbf
00000310: 63c7 92b4 f053 b1bf 99de 9814 d74f adbf
00000320: b2fa 341c 97e0 9d3f b960 8c6f ffdb b4bf
00000330: 2610 6061 55b9 a7bf a635 94ed 0314 913f
00000340: 3924 3960 0377 a0bf 6614 5a5d 0914 873f
00000350: 8957 50c2 d140 b83f 0075 0107 3ac7 923f
00000360: a64d 092d 2bd2 ab3f 890f 18cf 2282 ad3f
00000370: 4955 5b45 df47 abbf bc19 2d06 671d a6bf
00000380: 915e 281b 66c9 b33f 78fc 7612 9cab b03f
00000390: 5be5 3d63 2224 b3bf 991f bca8 7aac 7dbf
000003a0: 4995 e973 f4f4 ab3f 3906 319e 244c a33f
000003b0: 73e2 c977 5c3e ad3f 570f c5b0 a695 b93f
000003c0: 039a aa4c 9879 a23f c620 acfe d25c ac3f
000003d0: b3fa 16dd 7cee 85bf 36c9 02a9 241d b33f
000003e0: 2025 24c8 c4f6 b4bf 2142 06df 40cc b03f
000003f0: bf92 8f67 4f88 afbf 0c97 e596 bb84 b63f
00000400: 591d 130f c106 9c3f 5341 2f41 54db a5bf
00000410: 3fc9 c34c 18dc afbf 5421 b323 9515 b43f
00000420: 3fb4 54ae ff49 96bf ff43 92e3 8233 ae3f
00000430: 6684 c1b5 d3aa a2bf 33be 4e9c 1681 95bf
00000440: 3cbf 6e2b 3107 a8bf 1fae 2a07 de68 b6bf
00000450: 8968 d0ff 24e1 a63f f0c2 d40b ba34 b03f
00000460: d977 e6ab f645 9dbf 6f81 8d1c 6dd2 adbf
00000470: e6c5 8d1e 864e a7bf 1724 5fac 48da b53f
00000480: 23e5 56b7 e7a8 a33f 4639 734f e250 9bbf
00000490: 9931 b4a8 0b51 4c3f 3973 563d 7293 b73f
000004a0: f959 0c09 3992 a73f 992b 97ba 1ea1 a73f
000004b0: 6920 3c71 1411 aa3f 2fa8 6835 8542 adbf
000004c0: 9c7a 190d c205 b4bf 5998 9df8 25e3 a0bf
000004d0: dbf5 2601 f44a b1bf 06f8 0152 a185 afbf
000004e0: a6a2 2461 8f9e b3bf cc3c 23ea 797c 813f
000004f0: 3f5a 90c3 65d0 b83f a618 e5e4 aee9 a0bf
00000500: f61a 687f fc04 a43f 7494 809a d407 b4bf
00000510: ef5d 17d2 6fcb b63f ffb7 dbd3 7cc3 afbf
00000520: 9cef 2b13 438a b9bf 6cef 3725 70f8 aabf
00000530: 338d 312c 1bb4 8a3f bc5d 1ac6 a81c b53f
00000540: d6c8 1a5f c816 b43f a6d2 f579 8e67 8bbf
00000550: e62f 5031 3cac b53f 66d4 9be2 4810 53bf
00000560: aead 539a 75c6 b33f 262e 8c92 22a7 abbf
00000570: a3ba 609d d6f1 b73f 1615 6eed 367b a2bf
00000580: 19ad f492 13d2 89bf 59ef fae7 3c7b 99bf
00000590: d64a 50fc 7164 adbf 93f4 968d ddd5 933f
000005a0: 43be 3c3a cabd b7bf a9fe 3065 4b24 b5bf
000005b0: 6c9c 6472 48a8 a23f dcfe c773 1990 ad3f
000005c0: 7fce 7c70 2f3f 97bf a9af aa5f 9a10 b23f
000005d0: 59c8 ee0e 657e 813f 90e1 d4eb b7e6 b1bf
000005e0: ccfc 3492 a243 6b3f 32f3 19c1 da44 4e3f
000005f0: 7fff 386e 6583 7dbf 8cd7 5e25 b509 a7bf
00000600: 7f1e f02a 94fe 98bf cc41 d00e a969 b03f
00000610: 7370 88b2 0cc6 b43f 192f d1ac 9fdf a43f
00000620: 4328 ca3e 9cac b6bf 59c0 feea 6b47 b3bf
00000630: 064f c72d 68e3 adbf f3a8 be10 5974 b03f
00000640: 1c07 778d 6b6c b1bf 2f9b c941 38b4 ac3f
00000650: 9f65 06cc 6f4a 983f 27b8 a937 8795 b53f
00000660: 4140 2d34 cf41 b4bf b89a ae95 9b49 b2bf
00000670: 3b4b ff11 44a0 b3bf d319 c8cf fc51 973f
00000680: ff73 5efc 3ffa 8abf 5660 0b53 8619 ae3f
00000690: e0cd 0e2a 6a85 903f 9904 58bc 0cb0 b4bf
000006a0: c49a 9d79 8edc b43f acd0 5089 2b92 91bf
000006b0: 19bf 96a0 7e8e 8c3f 99bf 7a6b 15f7 89bf
000006c0: 668a 6267 7dd2 953f f0f1 301d 4186 a13f
000006d0: 2cda fc3d cecd aa3f 0c2a ab7e 184b a2bf
000006e0: 7367 089c 6e84 b2bf 96ba f460 f525 b43f
000006f0: cc56 f7b5 7520 99bf b355 a6c1 6264 b33f
00000700: 998f 85d5 9ce5 863f 868a e49b d1bb 913f
00000710: e68e 934a 9b67 953f 8614 5f30 1bba 913f
00000720: 5951 2f10 966a a4bf f344 8cc6 b218 9c3f
00000730: a98b c2b5 05a0 b53f 66b8 1d7e 6c3d 973f
00000740: 8c93 7075 30fb 8bbf b622 df4d 163c a2bf
00000750: 6828 c147 a81b b53f de63 5714 17ef b23f
00000760: a9a2 6534 eda5 b4bf 2c13 9f2e 0333 a03f
00000770: b190 50cd 5bc4 b53f ce7c 95e1 55a3 b2bf
00000780: 3c3f 7aaa 9b0a a33f cc39 cc2c 2c23 8f3f
00000790: 7b52 ebde 022b b23f 868f 0195 d3a1 ae3f
000007a0: 86e8 de77 b29e 96bf acf7 99ae cd04 a2bf
000007b0: 6604 e7e9 ed1d 873f 3f02 0453 ff76 8fbf
000007c0: c817 400a a52d b03f b305 c64e e541 b4bf
000007d0: 8099 92c1 cd0f a4bf 6f42 ce39 5200 abbf
000007e0: 613c b640 d74b b3bf 23d6 590e 862f b63f
000007f0: a652 8bab 427b a4bf 731a 76ca e41b 8a3f
0.0529500976694418 -0.017437389016354696 0.07917362507036951 0.04690472880883094 0.021770522538580604 0.0016122803058938205 -0.04250052837484801 -0.010292775260362718
-0.03917322204659552 -0.001666933030332518 0.07776691006478242 -0.03855293614099879 0.045808177157841794 -0.05796666397173488 0.07928199170638983 0.052400510542845107
-0.030179385517282428 -0.038380178161563805 -0.045950305231087715 0.01414488683262478 -0.0777092060148021 0.02587377488495661 -0.06620256449156114 0.037938871121141665
-0.010861289556407437 0.02228229379492077 -0.06643182218253094 -0.06848838387507178 0.01758069538462201 -0.020989747869500162 0.02264183564285922 -0.059488110367158814
-0.0967533017905574 -0.03673437851494614 0.05814069900970961 -0.03841086350904725 -0.05726470048842671 0.01798584658792708 -0.006755871984666473 0.018106678981743805
-0.05819459168684635 -0.08643556290918368 0.08234206566624347 -0.01157994225255352 0.0036424425747886733 0.07621894838997494 0.0694195828438975 0.02246103342066532
0.06749356715734076 0.008046668639113852 0.0464723601466896 -0.07687236877520055 -0.029888918524288564 -0.09163659768288618 0.06273869171154076 0.06726306231201808
-0.04438078429043095 -0.03955991251356563 -0.0558976978632822 -0.03385722973284835 0.04131709225203823 -0.0775614341385638 0.0018391845356424683 -0.061861865532386366
0.014226424281198557 0.09699483900236651 0.034679166365002984 0.07008490140180017 -0.027721898565882874 0.07472185897878314 0.029314235373168993 0.09782409583993654
0.042378773854305725 -0.06481057709598356 -0.05645753621982814 0.08006269560145544 -0.0874504890925311 0.0037368977218429572 0.03561514256105011 -0.09472443470438247
-0.09317173980733333 0.0625996449234573 -0.003776251017110743 0.016616078403258627 0.09221598436030977 -0.028691064574443835 0.04761411114669318 0.06795410593106085
-0.003959805189960974 0.08226834897230507 0.050353427290909254 0.024697873657481394 -0.09844484570579667 -0.04068376477108457 0.07657789198282738 -0.01344305717928771
0.09763740613357165 -0.05632037997412564 -0.06768707664994404 -0.05724975706510555 0.02917705640470087 -0.08148189996097956 -0.04633585752165485 0.01667791497771067
-0.03215799855804175 0.011268685494778729 0.09473906511297349 0.018338114430993535 0.05433783459434531 0.05763348367693683 -0.05328271600380192 -0.04319307279961346
0.07729185259847272 0.06511855555344137 -0.0747701160707001 -0.0072445670482536246 0.054603232526270924 0.03769030028389548 0.05711640321982694 0.09993974509876345
0.03608394561642927 0.05539569243234292 -0.010708785531162368 0.07466344000093703 -0.08189039121875341 0.06561665959294107 -0.06158683909578632 0.08796284135823046
0.027369514985165242 -0.0426889733859094 -0.06222606598920998 0.07845432397437452 -0.021766657843887535 0.058986749915796104 -0.03645955651951098 -0.02100024537111107
-0.046929871131736495 -0.08753764796227202 0.044686466433817414 0.06330454624982074 -0.02858720230289422 -0.05824604962868107 -0.04552096484156802 0.08536199768344975
0.03839801896124075 -0.026675735568283863 0.000864153569098347 0.09209360120298705 0.04603746638729329 0.046151123311197036 0.05091155893575278 -0.0571481349655446
-0.07821286029637026 -0.032983004187187866 -0.06754994419221509 -0.061566392193512384 -0.07663818475396997 0.008538200815023343 0.09692989372738568 -0.03303286117675101
0.03910054259545419 -0.07824448368099174 0.08904169921094483 -0.06203832708511924 -0.09976596086556672 -0.05267668203666073 0.013038837705784267 0.08246855579851958
0.0784726364316016 -0.013381112191134758 0.08465934947906781 -0.0011635505456386807 0.07724699990983794 -0.054009514226063524 0.09353391020043005 -0.03609630249324362
-0.012607720300897672 -0.02488417783636918 -0.05740696148872863 0.01937051941580543 -0.09273971483048009 -0.08258506031506364 0.0364401473655612 0.057740016349269147
-0.02270197032994625 0.07056584201444473 0.00854186012097473 -0.06992673404318439 0.0033281493394095914 0.0009237354408494268 -0.0072053873187200015 -0.04499593812162947
-0.024408640976643966 0.06411224948556721 0.08114699705805765 0.040768613668289606 -0.08857132466269584 -0.07530855643449409 -0.05837560232944665 0.06427532824332953
-0.06806060985311685 0.05606246760435451 0.023721453502366093 0.08431286915740142 -0.07912917159888001 -0.07143566517207034 -0.07666421355615409 0.022773695165619955
-0.013172626389684082 0.05878848804212626 0.016133936707502516 -0.08081130598295018 0.0814904257691565 -0.017159157043537362 0.01394366195276535 -0.012678305952561962
0.021310767588725098 0.03422740441644467 0.05235142237363663 -0.03572918459174809 -0.07233325299639919 0.07870420090760386 -0.024537886840184694 0.0757505152490328
0.01118013884178719 0.017318034305513062 0.02090304033926218 0.017311501338344935 -0.03987568805283343 0.02743796669807792 0.08447299659250852 0.02269525069953495
-0.013662699302651203 -0.03561467838841763 0.0824532675916615 0.07396072622886105 -0.08065683869575459 0.0316391939555046 0.08502744448248013 -0.07280480153484634
0.03719030815147881 0.015203805081481024 0.07096879904140423 0.0598283881561477 -0.022089756552056382 -0.035192897380496774 0.011287554455409143 -0.015363688202797763
0.06319648266079902 -0.07913048909360647 -0.039183072928881124 -0.0527368255199051 -0.07537598924521795 0.08666265344967221 -0.040002902450998065 0.012748515537862581

bias f8 [64]
00000000: cd32 a17b 9ecc 79bf dd1d 366b 6fd8 b63f
00000010: 004f fd36 8efc 9fbf baae 06d2 6359 903f
00000020: fa1b ecdf 21e2 abbf a441 fb24 d17e b7bf
00000030: da9b e564 b86c 81bf 6f73 1744 edba b83f
00000040: e754 6126 d198 a6bf f75b 6cd0 c4c7 a33f
00000050: d2f6 d061 213c b23f f4b1 6eb3 3f46 b63f
00000060: f06e e22a 8a79 ad3f b782 7ab9 b391 b53f
00000070: 8dec f139 91e8 9fbf c578 6328 d57c b3bf
00000080: b4d2 6462 e292 9ebf 5a7d 98fc 7994 a03f
00000090: 1b78 62ac fe12 b03f 807d 3055 6bbd ae3f
000000a0: 345d f869 8c7b 8e3f 9ab4 1615 a4c5 953f
000000b0: a76a 330b a54d a93f 3383 cfa9 b9f5 703f
000000c0: caf1 ee57 b329 b3bf f8c7 2b33 6fcc b83f
000000d0: ed93 bd3c 7bec 933f 02d9 cc7b 36d3 b83f
000000e0: e08c 561c 9a34 98bf bd67 498c 36b9 b3bf
000000f0: 8da2 ae2e c9b8 aebf 37e6 cf17 4a66 b23f
00000100: dd62 e689 c8b0 a1bf 009e dc2d 81b2 b6bf
00000110: 64f2 da19 3bfd b63f 9a69 3824 8df3 353f
00000120: 07ee 5a02 cacb a33f 0008 09b2 f3ef b0bf
00000130: edab 2e7c e90b 95bf c038 a321 df23 893f
00000140: 0717 8d12 ff9b b33f 74af 88f7 df60 b33f
00000150: d837 f9cd 016e b2bf c458 b5bd 2ac9 a4bf
00000160: 247f 9211 d99f a63f bd20 2cad 9ad3 a43f
00000170: 737a d88b 5a00 80bf 5af5 094c 4663 9bbf
00000180: 4466 e1e2 9bc6 b73f a72c 135e 625a b73f
00000190: ca67 2cee 04cd b13f 9593 f92c d6ed b0bf
000001a0: d0a7 5a28 324e b4bf 744b 234a 9c93 953f
000001b0: 8042 cacf 5548 9c3f 32cc 2061 a3e8 b7bf
000001c0: 93fb 9a09 2aed b2bf c4f4 b884 b299 b8bf
000001d0: 0c1b 3614 a2ab b7bf 0dd8 9a10 28ae a03f
000001e0: 0dd5 9f84 d6d6 9d3f 1a41 e61d 9817 913f
000001f0: c019 98bd 98c3 9ebf 7dca 51a1 cc3f a1bf
-0.0062986555804626755 0.08924003951516775 -0.03123686037663642 0.015965995496727038 -0.05445962770868813 -0.0917788234030526 -0.008508148745660127 0.09660227692024902
-0.04413465112217257 0.038633490030569755 0.0712300170716518 0.0870094121043577 0.057567899451184235 0.08425448683056912 -0.031160611306841935 -0.07612354503678194
-0.02985719419048634 0.03238278587763928 0.06278983791932584 0.060038904332254894 0.014884087547257431 0.021261752879287422 0.04942050706605033 0.00414059185729414
-0.07485505005656204 0.0968694209985016 0.019456792433079007 0.09697285196748243 -0.023638160686130116 -0.07704487729043215 -0.06000355429506952 0.07187331277227647
-0.034551874955644137 -0.08866126413033015 0.08980149632675133 0.00033495136105590186 0.03866416243314679 -0.06616137596668636 -0.020553253368841885 0.012275450910604113
0.07659906580837737 0.07569694321926851 -0.0719910743584643 -0.04059728208328431 0.04418829288010631 0.04067691196365917 -0.007813174622296892 -0.026745890036626953
0.09287428177904028 0.09122290417433253 0.06953459563047129 -0.06612909887333125 -0.07931817517479023 0.021070901894585117 0.027619686896800832 -0.0933935272340001
-0.07393133863932481 -0.09609523525519409 -0.09246266358796279 0.03257870867439303 0.029139854283092115 0.016691567253986773 -0.030043016979129922 -0.03368987530929688

weight f8 [64, 64]
00000000: 5f13 8cea 4c8b 96bf ef45 6e0a 642b a0bf
00000010: eb47 0f99 987e b6bf 374a c7a3 9e53 90bf
00000020: 8f30 92f8 ea2d b5bf d397 482d ea0c a33f
00000030: 2771 87ef 45f5 a3bf 27ea 6646 a3c7 a3bf
00000040: 0f7c 5927 670c 80bf 119f 1c18 a35a b2bf
00000050: 772b 19e3 3308 bb3f 0f2d 8197 2081 b3bf
00000060: 137e 4477 4d94 aabf c1f7 a672 5ae5 b4bf
00000070: cfcd 773f 07bd 8f3f 033c a0a3 5b72 b5bf
00000080: c3d5 c937 4cc1 b4bf 1d57 13c2 9f93 b63f
00000090: 2781 701c bc9c a43f 6f1c a568 ee5a ac3f
000000a0: 1f04 e373 bc21 b43f 534c b70d 7577 ac3f
000000b0: ff79 f004 5cfd 6cbf 5914 fd3a 8863 b8bf
000000c0: 83b4 ae2e 7d68 ad3f 5f33 0aec 5ccb 783f
000000d0: b943 f216 0f57 b0bf 9f40 40d8 8a4c 7dbf
000000e0: 33fc cf2c 6832 ae3f ddb8 2d36 953d bcbf
000000f0: 0fa4 ec16 2e41 b4bf e7ff 9292 98a7 913f
00000100: 5720 aaff 53b2 9dbf ffda f2b0 4d6b 6ebf
00000110: 4112 063e fbe7 bbbf f75c c9f0 f686 bc3f
00000120: 871c c94f a219 bcbf a9bf d936 f115 b83f
00000130: 27d1 5663 d2b9 97bf 1729 0e36 0e6b a43f
00000140: f9c5 99cd 7736 b73f c7c7 307e 7102 be3f
00000150: 07e9 cd59 d2ce a8bf e17b b031 c5c4 b8bf
00000160: 5b25 d7d3 22db a83f 4b8a 04ff e27b ab3f
00000170: 1398 c9cf 9d6c a43f 7fac 1bd3 6591 913f
00000180: bf51 adec a703 8f3f 7d9b d49a 15a6 b0bf
00000190: 8314 2263 32d8 babf 4b2c 61df aaac a33f
000001a0: 5b57 e2ba 68a7 b6bf eba3 d93e 0cf9 aebf
000001b0: d3d7 c522 174f b6bf bfb2 12f5 b888 79bf
000001c0: 6798 0d58 78bd bfbf d743 eaeb bc1c b33f
000001d0: bfdd ff3c 3d6b 99bf 7fe0 cabe b0dd b33f
000001e0: 2755 4642 6c14 943f 0f24 b531 d391 913f
000001f0: 9f47 5fab c12f aa3f 3f6d 9b96 72e9 ae3f
00000200: 4702 cacc 8303 98bf bff0 3b6d f5ac 6c3f
00000210: bf5a 292c 3dda 6abf 6f8e ec68 5220 9dbf
00000220: c7eb f5e1 796e bb3f 4161 0be6 549b b8bf
00000230: 7bbb 573e da80 aebf dfca c5fd 5599 bf3f
00000240: cff0 13f3 179e 8b3f e100 43c3 2268 b6bf
00000250: bfc0 6dbb 5130 97bf 3fb2 a2dc fdde ad3f
00000260: a333 3f96 309b b6bf 5b39 4ba2 63d4 b33f
00000270: 9fe9 70f4 da07 7abf 8fd9 7415 22b7 aabf
00000280: eb9b e405 58e2 a2bf ffc0 5de6 2467 58bf
00000290: 3bd9 f0b4 bc6c b3bf afdc b956 788b 92bf
000002a0: 29d1 7b36 c0ca b1bf 377f 688e 652a b0bf
000002b0: 6fcb 2914 deee 873f 4319 b29c 1437 a6bf
000002c0: 77b1 eb26 8e5e 923f 3d3d c6de 98d6 b43f
000002d0: 8fb3 169d 3f47 a5bf cfd5 5979 baa5 9e3f
000002e0: c553 e571 1702 b3bf e39b 1207 9395 b6bf
000002f0: f392 dafc b905 a83f 97c1 dc0f 50fa 99bf
00000300: a764 f830 2ff4 a6bf 99e0 a307 a105 be3f
00000310: 99d4 3790 1107 bcbf c94f 3746 dc30 b9bf
00000320: 71a0 2dd2 5784 b4bf 5f32 7989 be9f bfbf
00000330: 1b5f 7115 a89e a5bf e1a5 86ab 071c b13f
00000340: 11e1 f401 f66d b13f af76 076d 4df0 92bf
00000350: 5f4e d4e0 6a24 7b3f 6b7b bc0a e319 a1bf
00000360: 97c4 4502 0b4f 90bf 2738 f7e7 eb6f b33f
00000370: c35f e646 bec1 a2bf 0bc2 6023 7bc7 a2bf
00000380: ff16 8908 f12f a43f 3722 43f6 cddb b13f
00000390: 817a c950 3e6c b93f af12 90a5 67a0 8d3f
000003a0: df4f 8cdc c35e bebf 2b7b 7a26 45d6 adbf
000003b0: 57d8 428c 5b0a b83f bf80 c9b2 eb3d 7cbf
000003c0: 07a5 e668 c776 a0bf a71c 578f d6d5 9abf
000003d0: b791 548e 3582 bbbf 8b68 5cf6 21ae a63f
000003e0: 1dfb e561 7d61 b53f 19b7 39b9 b937 bd3f
000003f0: 697f 8e7a 66e7 b33f ff3b f9de d823 a0bf
00000400: 97ff 9ef8 e367 9f3f ef3c 0b24 067a aa3f
00000410: 1b8a 9c58 27f4 a9bf 277a cee3 3f84 983f
00000420: 2376 868e 6255 bebf a1d8 f1ac 776a bb3f
00000430: 892f 7341 26c0 bfbf 859b ad3f 2da0 b33f
00000440: 1f53 286b 089a 78bf 1b90 6a10 1c15 babf
00000450: 0bb7 148b 597a abbf ff04 2fc1 94d3 66bf
00000460: ef47 4787 77a9 b9bf 0307 d353 4057 acbf
00000470: c3b2 48dc 63f5 b8bf 5f5a 3b74 86eb b4bf
00000480: bf19 afc3 c1c5 b93f bb1a 4b8f d81f ae3f
00000490: 0b1a e361 9070 aebf 3f99 7d6d 5204 843f
000004a0: 6d05 3b49 e349 bcbf 7fb4 564b 9585 8f3f
000004b0: 55fa b3b6 2ea4 b1bf 779c dcee b351 ae3f
000004c0: f750 f0f8 74ab a5bf f7dc 4f95 76bf a8bf
000004d0: bfa9 acc6 6249 9ebf e551 8a1e fb0b b13f
000004e0: dff0 9c34 4764 76bf 65b1 0776 0d9a ba3f
000004f0: 27bf 5aa0 b3d2 b6bf 3b5f 98be 30b8 b83f
00000500: 7944 0e5f c8a9 b83f 031a 4cf4 617b adbf
00000510: d19b aef6 0259 b43f 3d54 ac96 0d98 b7bf
00000520: 5fcd 5690 2257 883f 57e4 7edc 1cb7 91bf
00000530: 7f26 683b cd04 8abf 9fba 2c43 cb09 72bf
00000540: d39f 8ba9 1092 bd3f 2f28 614e 607d 9a3f
00000550: 7d56 a78d 8b4d b9bf 7f38 5723 209f 683f
00000560: bfa6 46ad 8016 993f b5b7 39b8 7f76 bc3f
00000570: 4752 4a6f c1b5 b23f a770 afb2 ba1f bfbf
00000580: a33a 0cec fdf9 bb3f ff25 946b fddb 3fbf
00000590: 296b f6de 32b7 b8bf 6762 d845 dcfd b7bf
000005a0: f706 d582 ae15 913f ff51 80de a0ca 963f
000005b0: 9f8d 7f08 bd1d 753f 51f3 fe3a b890 bd3f
000005c0: f324 95c6 d8ca aa3f 2364 97a2 a2c1 b6bf
000005d0: 8f0d 3ff5 a657 963f 7d32 69c4 038e b9bf
000005e0: 1749 004c 1118 abbf a36f be3b 315f b43f
000005f0: 5b6d 3bef 84da bd3f 9181 92e2 9e18 be3f
00000600: 6332 26e7 8059 adbf f776 37af e2e6 b1bf
00000610: cfd1 a966 a7b6 913f 6f6b 72ea 2625 883f
00000620: 4f17 89f6 d13f a13f ff3e e676 23e8 73bf
00000630: 531a dff3 4feb a6bf 4d05 abf1 0554 b7bf
00000640: 83c6 5ec2 326a b1bf 1f30 e2df 229b 7dbf
00000650: 37ba 812c eb1e b03f 63aa 8c82 550a b9bf
00000660: a7ea 05ec f606 963f 47f2 4845 460e ae3f
00000670: 8ffb 4acd 698e bf3f 23e1 168f 0510 adbf
00000680: 1f9c 352b a993 b7bf 8dfd 866c a640 b9bf
00000690: 1702 fed9 aff2 993f 372e 8a18 20b1 a7bf
000006a0: 7580 fa7e bbf1 b83f 773e d793 622d ac3f
000006b0: dd71 1584 fb0f b13f 3f34 98a5 0933 853f
000006c0: 7ffb e165 f4a6 bfbf 3387 832b 713b b33f
000006d0: ef68 048d dfba a2bf cf22 55f3 f11c 983f
000006e0: 8bdf c3b3 b537 bd3f 5b86 0e63 5303 aa3f
000006f0: b1e8 d22f 437b bc3f efe0 7d6d 0890 adbf
00000700: 87fd 9c55 75e0 bb3f a500 bdf2 1cdd babf
00000710: 6539 cf2a 443b b2bf 1f77 8138 4305 a0bf
00000720: eb0a 9e06 18f3 b3bf ffdf 710d 6b08 8abf
00000730: 5757 1e6f 28d2 a63f bfc6 e617 1d7b 963f
00000740: b1a2 2a4f 9566 b6bf 1b68 c239 e2e6 abbf
00000750: 4fe5 fc62 498b 9cbf d774 53a0 5f0e b83f
00000760: 7b8b 915d 369d bfbf 0f66 8607 2b52 963f
00000770: ff0a 46db 3762 913f 5f64 6254 ab34 98bf
00000780: 3f6d cc13 0fb8 7d3f d530 a8b3 dcfa b1bf
00000790: f360 3bd4 f3bf a6bf abdb 841b 786e bc3f
000007a0: 9309 c7de 2fcd a93f 7360 6401 6697 a0bf
000007b0: ed74 645a aece bd3f 4bd1 e4f2 3410 a93f
000007c0: 4187 6e23 476d ba3f 7b58 f270 c9e7 b73f
000007d0: d73d 975f 3391 b6bf d748 9639 00d8 a1bf
000007e0: 390a e723 ea60 b7bf d9fb 0000 b9c7 bbbf
000007f0: 3f0a e576 88e9 9ebf 5f0b 0ed8 33d9 be3f
-0.02201576406061478 -0.03158104541138217 -0.08786920296486726 -0.01594398378967751 -0.08273190086964831 0.037207906749514706 -0.03898066090525481 -0.03863249048614064
-0.007836156738617843 -0.0716955121866898 0.10559391302483144 -0.0761890764126074 -0.05191270905401892 -0.08162465380789198 0.01549726164282719 -0.08377621407292683
-0.0810744892313187 0.08819006431744154 0.04025829169427402 0.05538125064281806 0.07863977269427423 0.05559888641769164 -0.003538779950317705 -0.09526874008322873
0.05743781275609996 0.006053317047769762 -0.06382841406072161 -0.00715307460997408 0.05897832438494568 -0.11031467983932282 -0.07911956844021993 0.017240890451603177
-0.02900058029129612 -0.0037132756620751324 -0.10900850548029785 0.11143439653948294 -0.10976614425554675 0.09408481206059939 -0.023169791520289664 0.03987926874022401
0.09067486543224125 0.11722478228401122 -0.048452924215739705 -0.09675247634048346 0.048546875342774874 0.05367955554017508 0.03989117776363584 0.017156210908904953
0.015143691931066237 -0.06503424673119969 -0.10486140175096818 0.03842672325898685 -0.08849196016885001 -0.06049383418287121 -0.08714432333894644 -0.006233904351728269
-0.12398483419164706 0.07465725669523181 -0.024823147628891592 0.07760147722263076 0.019609157128418844 0.017157840641889573 0.05114560334153783 0.06037481392351162
-0.0234509080642076 0.003500441884055488 -0.0032778925681598843 -0.028443610815101324 0.1071544815694515 -0.09612017265624663 -0.05957681666392652 0.12343347020741245
0.013485133271835896 -0.08752648608333714 -0.022645260872594216 0.05834191625885809 -0.08830550830971488 0.0774595519280629 -0.006355147640585561 -0.052178444976038844
-0.03688311645446859 -0.0014894352293275956 -0.07587794702053412 -0.01811016110738411 -0.06949998216788757 -0.06314692236673812 0.011686072340330004 -0.04338898098744661
0.017938824773339825 0.08139949263408126 -0.041559207845558103 0.02992907872836331 -0.07425066500338946 -0.08821982309983371 0.04691868983835503 -0.025368929832610822
-0.04483172867566881 0.11727339207198141 -0.10948285838078887 -0.0984018012453013 -0.08014439469627789 -0.12353125435147082 -0.04222607862237578 0.0668339532627651
0.0680841212059742 -0.018494806079493994 0.00662652730285948 -0.03340062624032821 -0.01592652512903622 0.07592653668618309 -0.03663439383961944 -0.036678169315909136
0.039428264896327996 0.0697602010942625 0.09930791351642122 0.01446610425956271 -0.11863350042796082 -0.05827537626941245 0.09390804457038492 -0.006894989678215945
-0.03215621142892116 -0.026206352709576077 -0.10745558476316473 0.044297276805267925 0.08351882591339828 0.11413155338388171 0.07774963848214402 -0.0315234920677696
0.030669748353602335 0.05171221914280887 -0.05069086987193235 0.02394199207230421 -0.11849037150974388 0.10709331486018182 -0.12402571771525407 0.07666285328524054
-0.006006272206396073 -0.10188460732257491 -0.053667829730654835 -0.00278643659245914 -0.10024210980125735 -0.05535317443128742 -0.09749435546900558 -0.08171882951442332
0.1006737807029827 0.05883671521364905 -0.059452545117483956 0.009773868528736627 -0.11050243890624296 0.015391508447317513 -0.06891147575877572 0.0592170933799076
-0.04232373751452372 -0.048335748411711 -0.02957681977856352 0.06658906455624665 -0.005466726442872465 0.10391315585701973 -0.08915255226997641 0.09656052258685303
0.09634067841240491 -0.05758195979256089 0.07948320887099604 -0.09216389587921099 0.01188494685161484 -0.017300082166660093 -0.012704470992520143 -0.004403871530299113
0.11551002635280776 0.025868897231966222 -0.09883949478474992 0.00300556446993655 0.024499903274466158 0.11118314979259376 0.07308587042855051 -0.12157790052828209
0.10928332341084483 -0.000486134882138417 -0.09654539054319557 -0.09371735291677795 0.016684271560058552 0.022257340984724646 0.005155313883708073 0.11548949661569209
0.052328848115004954 -0.08889214009776984 0.02181874153008106 -0.0998232225912918 -0.05291799595592488 0.07957751949874008 0.11661558952930788 0.11756318122434652
-0.05732348271985612 -0.06992928292990173 0.017298331872057034 0.011789611844781082 0.03369003424135874 -0.004860056431780667 -0.044764040488691 -0.09112584257220142
-0.0680267071282064 -0.00722802756184751 0.06297178112593192 -0.09781393468134918 0.021510942607600694 0.058702655751834025 0.12326680433305469 -0.056762860981907325
-0.09209687523763009 -0.09864273213951531 0.02533983963030736 -0.04627323436315261 0.09743854379712664 0.05503376059243419 0.066650123354925 0.010351252904934436
-0.123641276239125 0.07512576401088893 -0.03658197971727072 0.023547916867104498 0.11413131369397271 0.050806623308073916 0.11125583570074828 -0.05773950897759216
0.10889371242682531 -0.10493641782977876 -0.07121683163788857 -0.03129015030638826 -0.07792806779438492 -0.012711368892482254 0.0445721278803563 0.021954016288595165
-0.08750279600884416 -0.05449587779112638 -0.02787508646654163 0.0939693228169348 -0.1234926203192525 0.02179782136372493 0.016976235159300575 -0.023638417268191932
0.007255610366679931 -0.0702341021171294 -0.0444332310268595 0.11106062576150914 0.05039357752277165 -0.03240507857316368 0.11643495280118872 0.04895177330982622
0.10322994818718902 0.0933805371044815 -0.08815308650741059 -0.034851080922764836 -0.09132254959607956 -0.10851627588361569 -0.030187732941394648 0.1205017473676384

bias f8 [64]
00000000: e4f6 a96c 375d b7bf fc2f 34c3 6b99 ae3f
00000010: 8cf7 6fdb 4c9d b93f 70b8 7930 a5e8 83bf
00000020: 1099 7565 f8ae babf 24d6 a683 39f6 b5bf
00000030: b056 b5c1 ab87 903f 062b 0d57 f187 bfbf
00000040: 2c0a 65c0 ceef a23f 4c36 6f79 647b a03f
00000050: c6b5 75f4 915e bcbf 3022 9258 e091 933f
00000060: f212 684d d183 bbbf 4240 0ef6 0d63 b73f
00000070: 4ca8 d095 c09d b93f 4894 7ab5 4dca adbf
00000080: 38b9 dc7a 9c07 bbbf 00e2 4219 02a1 7a3f
00000090: 4aa8 24f6 7388 b4bf 485f 11a8 e13b b6bf
000000a0: d0ff aee9 292b 8e3f f085 cc26 7e16 8fbf
000000b0: 869d 38bd 7938 bf3f 20ca 35bd 8ba4 7dbf
000000c0: 50ec 1230 1d77 943f d095 f26f 40a5 b9bf
000000d0: b415 fb53 cff9 a6bf b047 16cb 171d b8bf
000000e0: 30f9 d2da 10e3 bdbf 68c8 c04a 693a 933f
000000f0: 9cee 5f30 4acf b83f 3a13 184c fa7a b5bf
00000100: d406 abeb 57eb abbf 9e0d 8602 0772 b3bf
00000110: 4c5e 72be edf7 ae3f 78f9 3025 0912 993f
00000120: acbb acd8 f94c a13f 980c 0518 b4f5 a5bf
00000130: 3c00 e713 ba2a a5bf 58eb 5520 7737 a33f
00000140: 80fd f2b0 08b4 6fbf dcdb 5d79 f84b a8bf
00000150: a849 c043 35d8 b13f c68d 5f99 511e b53f
00000160: e684 cfa3 cfa1 b5bf 2051 fd71 4964 853f
00000170: 0067 fec0 6434 913f aa1d 281b 63e4 b53f
00000180: acec 89e8 01d4 bc3f 3c2d 63dd 066e a93f
00000190: 28e2 a06d 1242 a0bf 9ed9 6f42 dce0 b0bf
000001a0: 08c2 9c9b 1441 a73f e006 583f 27ff 783f
000001b0: 7000 63a3 58fc 8a3f 3e2e 8ce4 d789 b93f
000001c0: 8c1b d3be cf47 ba3f c027 aa95 be62 a1bf
000001d0: d0c9 841d 70cb 86bf 2659 b0eb 3313 b63f
000001e0: 24d3 e008 4aa5 b13f 082a e0c6 23d2 ad3f
000001f0: 30c6 8047 709b a4bf 5abd 5cad e053 b5bf
-0.0912661209385664 0.05976425893649659 0.10005646092755976 -0.009721079389432868 -0.10423233487162897 -0.08578834022667842 0.01614254350473371 -0.12316807151107065
0.03698583696906996 0.03219140989640987 -0.11081802576310115 0.01911116161912413 -0.10748012676055987 0.09135520226686913 0.10006335885614809 -0.05818407860105218
-0.10558488845410785 0.006501205633121732 -0.0802071071563272 -0.08685121873111001 0.014730765766103021 -0.01517962032227424 0.12195549840600081 -0.007237001281611671
0.019985633906554334 -0.10017779095740953 -0.04487464809566735 -0.09419392307452656 -0.1167459997404634 0.018777508914532254 0.09691299134277148 -0.08390774114384394
-0.054529902952266035 -0.07595866977322038 0.060485295770544484 0.024482863326050958 0.03379040498690897 -0.04289019387444987 -0.04134160511921478 0.037532541939944764
-0.0038700265646124943 -0.04745460969473189 0.06970532325821088 0.08249387735809596 -0.08450029134066347 0.010445188323196464 0.016801428107647176 0.08551616108899532
0.1126099770280457 0.04966756298525829 -0.03175408924329687 -0.06593109724040011 0.04541839980663914 0.006102708158779641 0.013176624761740835 0.0997595723130695
0.10265825661472955 -0.033956485528576774 -0.011130214596595162 0.08623051170466009 0.06892836300614796 0.05824386408501786 -0.040248402336498734 -0.08331112129666476

weight f8 [2, 64]
00000000: 5fa9 a0b4 c29e 91bf ff94 58d0 1686 87bf
00000010: 17e0 375e 9174 b9bf 13fe e88d 8c0d b4bf
00000020: 8bbb 358c be4b bebf 1199 5b8a 1795 b9bf
00000030: dfd6 60a3 3b56 73bf 099e 44d5 c347 b2bf
00000040: 79a2 4cdc 93f6 b0bf 9fa1 b457 2536 983f
00000050: 1765 00c2 30c7 ac3f c916 0f53 24c5 ba3f
00000060: 99c9 aff6 ad5d b33f af97 2fce 19e3 98bf
00000070: 1342 5cbc ffbf babf 4f9d 15ff 0224 bf3f
00000080: 5f5c c282 7599 ab3f fbd8 6498 5451 a0bf
00000090: 834b 83ed cbf3 be3f b7f2 c6a9 ca91 aa3f
000000a0: 5bc2 13df a4c3 bbbf 77a7 ac92 892e bdbf
000000b0: 1f0d 082c 9d79 b4bf 6f49 892d ae1b 9f3f
000000c0: 0ba8 d51c 3f4e aebf 993c 0df2 7a06 b7bf
000000d0: 9b64 65bb f860 bcbf e9c4 c85e 420e ba3f
000000e0: 4d4f 9da9 ff42 bb3f 979e 316a 69b5 b43f
000000f0: afd2 d1e3 816b a93f 7bb3 5841 da1e a23f
00000100: 81d8 dbff 0925 b63f b5ed 985e c8c9 be3f
00000110: e58e 526f 8020 bbbf dfbc 5dda 1cd4 b4bf
00000120: 6bee accd 2718 a3bf 8b41 65a7 dfcc b13f
00000130: 7d7f 9ff7 d0a5 b53f 7be2 9beb 2e62 b3bf
00000140: 4f03 2d12 cd3a aebf 0ba3 2eba 4df3 bbbf
00000150: fd57 75f6 3ccc b0bf 6917 09e7 75c9 b2bf
00000160: 4bca 23b2 6845 b9bf 9bfb a395 1e51 b3bf
00000170: 7f0f c305 c10d 7a3f bb78 3f8c 3af5 bd3f
00000180: 5fcd cb1f d8bd b4bf ff8d f47e 0be2 693f
00000190: c3e3 c2b0 bb7e a1bf 1745 2475 87f6 9fbf
000001a0: 1f9a c46d 5536 9abf 6ff7 5732 41cf 8fbf
000001b0: 1f92 6a25 1aef a4bf f316 7fb8 f931 acbf
000001c0: 3711 4b97 41de 9b3f 7d56 5312 f879 bf3f
000001d0: 0b9c 8bf3 1409 a33f fb2d 021b 1673 b9bf
000001e0: 153a e60f 3e91 b8bf cff3 41d3 9ac9 873f
000001f0: a18b cd7d c9c6 b53f 3bf4 0c30 4a63 be3f
00000200: 2b26 7ba3 2ad9 b43f b1aa c24e 5de1 b1bf
00000210: ef54 bbb4 726b 993f 5795 7227 7714 923f
00000220: f360 8bb9 0590 aa3f f709 7133 6a61 acbf
00000230: 7fd6 a3ac 4afb 6d3f 4bb7 ef39 03c6 b73f
00000240: 07a9 5d44 5276 903f d15a f23a 7568 bf3f
00000250: ebd8 d826 3702 a93f eb70 71bd 013c ab3f
00000260: a7c7 9b4b a11c b0bf 518b 7222 7dfb b1bf
00000270: 392f ac23 cf86 b2bf 1faa 38de f927 81bf
00000280: 2f9e 6c50 a994 88bf c797 19c3 a58e a1bf
00000290: 8753 8b4c 0ad3 993f 3f6f 5f8e c2ca a63f
000002a0: ef74 b6d3 567c 92bf bf0e 67e8 e8cf 6a3f
000002b0: d745 c9da 1118 ab3f e7a7 52c7 b3f4 bc3f
000002c0: 0b5f 8de9 a2b1 afbf 975c e0ef ed6a af3f
000002d0: e7f3 a77c bd22 933f 9763 cf4b ed81 973f
000002e0: 4795 1ce9 08f7 913f 270d 404a 7c4d 9fbf
000002f0: 8f3f c476 3a83 b2bf ffc7 a90a 891b 9bbf
00000300: 310f 3a9e 3301 bfbf 1f62 712b 62da 9d3f
00000310: b7b5 0fc0 a7fb b9bf 973a bee2 ca78 b5bf
00000320: 19e5 ae51 67e9 be3f c39a 9baa a71a babf
00000330: 6179 a952 5478 b8bf 6f03 598c 42ed 853f
00000340: 8ff0 6ffc 82ad b03f 735f 9818 635c b9bf
00000350: b32e 5fde c0da a2bf b3a5 c4ee 01f0 bbbf
00000360: e79d fb18 a3d5 923f fbcd 1b48 d627 a1bf
00000370: 6564 6787 13f7 bd3f d5e1 919f 6d30 bb3f
00000380: 4fcd c2a0 7c9b bfbf 4f80 37f7 d6c7 be3f
00000390: 2db1 3e16 4f40 bdbf 4f83 35b9 2c2f a73f
000003a0: 5ba6 e59b 47dd ba3f 7b1b 59e4 6a56 bcbf
000003b0: 7b10 a2c9 061f a3bf 7349 bdfc ff5b bfbf
000003c0: 1dad 8323 e432 b73f 2730 c999 0c9d a43f
000003d0: 7f5c 5aba b439 6b3f 530c 4c7f 0891 ba3f
000003e0: f92d f6d0 12f1 b73f 7f4a 14f1 9336 6f3f
000003f0: c342 210c a913 a2bf ffcc 6be9 84d3 aa3f
-0.01720718600714954 -0.011486223443237352 -0.09943493414164127 -0.07833174194910723 -0.11834326670735444 -0.09993121269107898 -0.004720910035805408 -0.07140754658450289
-0.0662624752845974 0.023644050100445232 0.056207202607945365 0.10457064655119121 0.07564818642257477 -0.024303820809926154 -0.10449217175142449 0.12164324500701194
0.05390517445737752 -0.031870502093100904 0.12090754078535153 0.05189355204081408 -0.10845404096813509 -0.11399135428351125 -0.07998068165766313 0.03037902977877976
-0.059190723676536626 -0.08994263085809208 -0.11085466933345105 0.10178007902210919 0.1064910687539939 0.08089312403319081 0.04964834123612626 0.035391636349550525
0.08650267120887813 0.12026645955568578 -0.10596468656381892 -0.08136158305363804 -0.037293666703104154 0.06953237377934422 0.08456140561565735 -0.07571690799876223
-0.05904236647484728 -0.10918126864875093 -0.06561642663049834 -0.07338654413714853 -0.09871534680477471 -0.07545653489431318 0.006360773080988368 0.11702314304372667
-0.08102179313919099 0.003159544423071869 -0.03417002232294621 -0.031213871502648063 -0.025597891640382394 -0.015532025669923148 -0.04088670450918052 -0.05506878258851868
0.027215027674871464 0.12295484969521371 0.03717866394963928 -0.09941232833278228 -0.09596622360388836 0.011614999363013382 0.08506450005874779 0.11870254204855339
0.08143869868504143 -0.0698450391088652 0.02482394435977125 0.017656194479646583 0.051880053424328575 -0.05543071630428991 0.0036598642810712896 0.09286518253767644
0.016076360151978466 0.12268765153053642 0.048845027439186804 0.053192190528280246 -0.0629368600455381 -0.07024366465570366 -0.07236952420151689 -0.008377029508740695
-0.012002299086431993 -0.03429143911925752 0.02521911709012017 0.04451568592023002 -0.01805244128410249 0.003272967241373908 0.05291801257829903 0.11310886017113796
-0.06190213299731625 0.06136268189600818 0.018687210782434873 0.02295656943519794 0.017543925502782966 -0.030569021255371667 -0.07231488608908719 -0.026472226405935825
-0.1211120854659924 0.02915337934641304 -0.10149620474813657 -0.08387439761848224 0.1207489561483225 -0.10196922221403341 -0.09558608072390974 0.010706443698951877
0.06514757788676405 -0.09906596518010051 -0.036825205941196336 -0.10913097457218761 0.018393085861047622 -0.03350705747825696 0.11705133491285975 0.1062077059340319
-0.12346629071071401 0.12023681197706647 -0.11426252644622954 0.04528178940632321 0.10493896061020662 -0.1106936271181506 -0.03734608851758111 -0.12249755783458287
0.09062028758096514 0.040260690472308895 0.003323414787540779 0.10377553088987783 0.09352223970034136 0.0038102044569623956 -0.03530624650068639 0.052395013326441024

bias f8 [2]
00000000: 4a47 522f cec7 b0bf 44ed de7a 81bb bd3f
-0.06554878859813332 0.11614236116195281
